app/tflite_graphs/seg_graph_q.tflite (tflite, 535744 bytes, 56 tensors)

MobilenetV3/Conv/weights_quant/FakeQuantWithMinMaxVars u1 [16, 3, 3, 3] scale=0.03427535 zero_point=90
0.0 0.0 0.0 0.0 0.0 0.0 0.0 0.0
0.0 0.0 0.0 0.0 0.0 0.0 0.0 0.0
0.0 0.0 0.0 0.0 0.0 0.0 0.0 0.0
0.0 0.0 0.0 -0.03427535 0.0 -0.03427535 -0.03427535 -0.03427535
-0.03427535 -0.03427535 0.0 -0.03427535 -0.03427535 0.0 -0.03427535 -0.03427535
-0.03427535 -0.03427535 -0.03427535 0.0 -0.03427535 -0.03427535 0.0 -0.03427535
-0.03427535 0.0 -0.03427535 -0.03427535 0.0 -0.03427535 -0.0685507 0.1371014
0.0 -0.23992744 -0.37702885 0.0685507 -0.5484056 -0.8568837 -0.0685507 0.0685507
0.0 0.0 -0.102826044 -0.3427535 0.0 -0.1371014 -0.5484056 0.0
0.102826044 0.0 0.0 0.03427535 -0.102826044 0.0685507 0.30847815 -0.03427535
0.23992744 -0.1371014 -0.20565209 -0.102826044 -0.0685507 -0.0685507 -0.03427535 0.03427535
0.03427535 0.03427535 -0.0685507 -0.17137675 -0.03427535 -0.03427535 -0.03427535 0.0
0.03427535 0.0 0.0 0.0685507 0.03427535 0.0685507 0.0 0.03427535
0.0 0.0 0.0 0.0 0.17137675 0.30847815 0.1371014 0.0685507
0.20565209 0.03427535 0.0685507 0.20565209 0.03427535 0.102826044 0.17137675 0.0
0.0685507 0.102826044 -0.03427535 0.0685507 0.102826044 0.0 -0.03427535 0.0
-0.03427535 0.0685507 0.03427535 0.03427535 -0.03427535 -0.03427535 0.0 -0.3427535
0.0685507 0.3427535 -0.37702885 0.0685507 0.47985488 -0.30847815 0.03427535 0.30847815
-0.3427535 0.0685507 0.2742028 -0.37702885 0.0685507 0.41130418 -0.30847815 0.0685507
0.23992744 -0.37702885 0.102826044 0.2742028 -0.41130418 0.0685507 0.41130418 -0.30847815
0.102826044 0.23992744 0.20565209 -1.371014 2.6734772 3.8731143 -0.30847815 2.94768
1.3024633 1.1310865 1.6109414 -0.44557953 -0.95970976 0.3427535 2.6392019 -0.65123165
1.0625359 0.1371014 0.6169563 0.47985488 -0.9939851 1.1653619 0.102826044 0.6169563
-0.82260835 -0.1371014 -2.5706513 -1.1653619 -1.2339126 0.0 0.0 0.0
0.03427535 0.0 0.0 0.03427535 0.03427535 0.03427535 -0.03427535 0.0
-0.03427535 0.03427535 0.0 0.0 0.03427535 0.0 0.03427535 -0.03427535
0.0 -0.03427535 0.0 0.0 0.0 0.0 0.0 0.03427535
0.20565209 -0.47985488 0.20565209 0.23992744 -0.65123165 0.23992744 0.20565209 -0.41130418
0.17137675 0.20565209 -0.47985488 0.20565209 0.23992744 -0.65123165 0.2742028 0.17137675
-0.44557953 0.1371014 0.17137675 -0.41130418 0.2742028 0.20565209 -0.58268094 0.3427535
0.1371014 -0.41130418 0.17137675 0.1371014 -0.17137675 0.03427535 0.17137675 -0.102826044
0.0685507 0.17137675 -0.102826044 0.0 -0.03427535 -0.23992744 0.0 0.03427535
00000000: 5a5a 5a5a 5a5a 5a5a 5a5a 5a5a 5a5a 5a5a
00000010: 5a5a 5a5a 5a5a 5a5a 5a5a 5a59 5a59 5959
00000020: 5959 5a59 595a 5959 5959 595a 5959 5a59
00000030: 595a 5959 5a59 585e 5a53 4f5c 4a41 585c
00000040: 5a5a 5750 5a56 4a5a 5d5a 5a5b 575c 6359
00000050: 6156 5457 5858 595b 5b5b 5855 5959 595a
00000060: 5b5a 5a5c 5b5c 5a5b 5a5a 5a5a 5f63 5e5c
00000070: 605b 5c60 5b5d 5f5a 5c5d 595c 5d5a 595a
00000080: 595c 5b5b 5959 5a50 5c64 4f5c 6851 5b63
00000090: 505c 624f 5c66 515c 614f 5d62 4e5c 6651
000000a0: 5d61 6032 a8cb 51b0 807b 894d 3e64 a747
000000b0: 795e 6c68 3d7c 5d6c 4256 0f38 365a 5a5a
000000c0: 5b5a 5a5b 5b5b 595a 595b 5a5a 5b5a 5b59
000000d0: 5a59 5a5a 5a5a 5a5b 604c 6061 4761 604e
000000e0: 5f60 4c60 6147 625f 4d5e 5f4e 6260 4964
000000f0: 5e4e 5f5e 555b 5f57 5c5f 575a 5953 5a5b

MobilenetV3/Conv_1/weights_quant/FakeQuantWithMinMaxVars u1 [288, 1, 1, 48] scale=0.005628864 zero_point=115
0.028144319 -0.10131955 0.09006182 0.07880409 0.050659776 -0.16323705 -0.09569068 -0.112577274
0.3095875 0.005628864 0.005628864 -0.061917502 0.07880409 0.09006182 0.056288637 0.011257728
0.04503091 -0.14072159 0.033773184 0.028144319 0.0 -0.17449477 0.12946387 -0.005628864
-0.022515455 0.016886592 -0.050659776 -0.06754637 0.09569068 -0.039402045 0.10131955 -0.12946387
0.0 0.10694841 0.028144319 0.07880409 -0.04503091 0.011257728 -0.15197933 0.028144319
-0.08443296 0.09006182 0.016886592 0.09569068 -0.011257728 0.005628864 0.061917502 -0.005628864
0.10131955 -0.10694841 0.033773184 0.04503091 0.022515455 0.08443296 -0.12946387 -0.14072159
0.25329888 -0.039402045 0.011257728 -0.08443296 0.016886592 0.07317523 -0.061917502 0.039402045
0.039402045 -0.15760818 0.16323705 0.016886592 0.005628864 -0.061917502 0.005628864 0.061917502
-0.11820614 0.056288637 0.09006182 -0.19701023 -0.10131955 -0.11820614 -0.04503091 -0.16886592
0.11820614 -0.09569068 -0.10694841 -0.061917502 0.016886592 -0.07880409 0.039402045 -0.022515455
-0.10131955 0.10694841 -0.005628864 -0.016886592 -0.016886592 -0.12946387 0.016886592 0.011257728
-0.25329888 -0.033773184 0.056288637 0.056288637 0.04503091 -0.17449477 0.08443296 0.061917502
-0.37713388 0.033773184 -0.04503091 -0.016886592 0.011257728 0.23641229 0.04503091 0.28144318
0.23078342 -0.20826796 0.09569068 0.039402045 0.2026391 0.0 0.14635046 0.056288637
-0.14635046 0.06754637 0.09569068 -0.10694841 0.112577274 -0.19701023 -0.07317523 0.061917502
0.11820614 0.112577274 -0.14072159 -0.005628864 0.033773184 -0.07317523 0.005628864 0.056288637
0.11820614 -0.2645566 0.022515455 -0.039402045 0.033773184 -0.18012364 0.09006182 0.011257728
0.10131955 0.08443296 0.04503091 -0.061917502 0.22515455 -0.056288637 -0.123835005 -0.18575251
0.061917502 -0.016886592 0.050659776 -0.14635046 -0.16323705 0.022515455 0.14635046 -0.112577274
0.056288637 0.028144319 0.039402045 0.039402045 -0.028144319 0.12946387 -0.08443296 -0.19138137
-0.061917502 -0.07317523 -0.16886592 0.050659776 -0.07317523 0.16323705 0.033773184 0.13509274
0.10694841 -0.04503091 -0.07880409 -0.08443296 0.011257728 0.10694841 -0.028144319 -0.08443296
0.09006182 0.23078342 -0.12946387 -0.15760818 0.09006182 -0.022515455 -0.005628864 -0.050659776
-0.12946387 0.18012364 -0.056288637 -0.11820614 0.04503091 -0.016886592 -0.04503091 -0.07317523
-0.20826796 0.10694841 -0.033773184 0.18575251 0.07317523 0.54037094 -0.06754637 0.12946387
-0.14635046 0.011257728 0.0 0.07317523 -0.07880409 -0.123835005 0.15760818 0.2026391
0.22515455 0.112577274 -0.12946387 -0.12946387 -0.14635046 0.061917502 0.011257728 -0.22515455
0.09569068 -0.06754637 0.028144319 -0.09569068 0.07317523 -0.06754637 0.011257728 0.13509274
-0.061917502 -0.08443296 -0.10131955 -0.005628864 -0.04503091 -0.011257728 0.14635046 -0.04503091
-0.07317523 -0.005628864 -0.13509274 0.08443296 -0.028144319 0.123835005 0.17449477 0.016886592
-0.033773184 -0.022515455 -0.13509274 0.022515455 -0.022515455 0.20826796 -0.09569068 0.061917502
00000000: 7861 8381 7c56 625f aa74 7468 8183 7d75
00000010: 7b5a 7978 7354 8a72 6f76 6a67 846c 855c
00000020: 7386 7881 6b75 5878 6483 7684 7174 7e72
00000030: 8560 797b 7782 5c5a a06c 7564 7680 687a
00000040: 7a57 9076 7468 747e 5e7d 8350 615e 6b55
00000050: 8862 6068 7665 7a6f 6186 7270 705c 7675
00000060: 466d 7d7d 7b54 827e 3079 6b70 759d 7ba5
00000070: 9c4e 847a 9773 8d7d 597f 8460 8750 667e
00000080: 8887 5a72 7966 747d 8844 776c 7953 8375
00000090: 8582 7b68 9b69 5d52 7e70 7c59 5677 8d5f
000000a0: 7d78 7a7a 6e8a 6451 6866 557c 6690 798b
000000b0: 866b 6564 7586 6e64 839c 5c57 836f 726a
000000c0: 5c93 695e 7b70 6b66 4e86 6d94 80d3 678a
000000d0: 5975 7380 655d 8f97 9b87 5c5c 597e 754b
000000e0: 8467 7862 8067 758b 6864 6172 6b71 8d6b
000000f0: 6672 5b82 6e89 9276 6d6f 5b77 6f98 627e

MobilenetV3/expanded_conv/depthwise/weights_quant/FakeQuantWithMinMaxVars u1 [1, 3, 3, 16] scale=0.3234048 zero_point=111
-5.821286 0.3234048 0.3234048 -8.085119 1.9404287 0.0 0.0 -31.693668
0.3234048 -10.025549 -10.995763 -0.3234048 0.0 1.2936192 0.3234048 0.6468096
-3.8808575 1.2936192 -0.3234048 0.3234048 1.617024 0.97021437 0.0 -9.378738
0.6468096 -28.783026 -35.574528 -0.3234048 0.0 0.3234048 0.97021437 0.6468096
-8.4085245 0.0 -0.97021437 7.43831 0.97021437 0.3234048 0.0 9.378738
0.0 -7.43831 -18.110668 0.0 0.0 1.2936192 -3.5574527 0.0
0.3234048 0.0 4.851072 -16.817049 -0.3234048 0.0 -0.6468096 -5.821286
0.0 -4.2042623 1.2936192 -0.3234048 0.0 -1.617024 10.348953 0.0
1.617024 0.97021437 0.6468096 1.2936192 0.0 0.3234048 0.0 32.340477
0.3234048 -11.319168 1.617024 -0.3234048 0.0 -1.9404287 9.702144 0.6468096
0.0 0.0 -3.5574527 16.493645 0.0 0.0 0.3234048 46.57029
0.0 -1.2936192 1.617024 0.0 0.0 0.3234048 -1.2936192 0.3234048
-0.6468096 -0.3234048 1.617024 -6.7915006 -1.617024 0.0 -0.3234048 -30.400051
0.0 5.1744766 9.378738 0.0 0.0 1.2936192 -5.4978814 -0.3234048
2.5872383 -0.3234048 -0.6468096 0.0 -1.9404287 -0.3234048 0.0 -13.583001
-0.3234048 8.73193 33.634098 0.0 0.0 0.97021437 -2.5872383 -0.3234048
0.6468096 -0.3234048 -1.9404287 6.144691 -0.97021437 -0.3234048 0.3234048 3.5574527
0.0 10.995763 17.140453 0.3234048 0.0 0.97021437 -0.97021437 0.0
00000000: 5d70 7056 756f 6f0d 7050 4d6e 6f73 7071
00000010: 6373 6e70 7472 6f52 7116 016e 6f70 7271
00000020: 556f 6c86 7270 6f8c 6f58 376f 6f73 646f
00000030: 706f 7e3b 6e6f 6d5d 6f62 736e 6f6a 8f6f
00000040: 7472 7173 6f70 6fd3 704c 746e 6f69 8d71
00000050: 6f6f 64a2 6f6f 70ff 6f6b 746f 6f70 6b70
00000060: 6d6e 745a 6a6f 6e11 6f7f 8c6f 6f73 5e6e
00000070: 776e 6d6f 696e 6f45 6e8a d76f 6f72 676e
00000080: 716e 6982 6c6e 707a 6f91 a470 6f72 6c6f

MobilenetV3/expanded_conv/project/weights_quant/FakeQuantWithMinMaxVars u1 [16, 1, 1, 16] scale=0.021306697 zero_point=137
-0.19176027 0.25568038 0.38352054 -1.0866416 0.916188 -0.46874735 0.17045358 -0.53266746
-0.55397415 -0.51136076 -0.51136076 0.10653348 -0.10653348 0.38352054 0.57528085 0.51136076
-0.51136076 0.27698708 0.14914688 0.21306697 0.042613395 -1.9602162 0.10653348 -0.12784019
-0.29829377 -0.042613395 -0.29829377 -0.59658754 0.042613395 0.021306697 0.21306697 0.6392009
0.7883478 0.59658754 1.0653349 1.1931751 0.0 0.21306697 0.021306697 0.51136076
-0.17045358 -1.8749894 -0.14914688 0.08522679 0.021306697 -2.8977108 -1.2997085 1.7684559
-1.5766956 -0.6605076 0.14914688 -0.9588014 0.08522679 0.25568038 -0.021306697 -1.0014148
0.19176027 -0.703121 -0.21306697 -0.36221385 -0.14914688 -0.55397415 -0.57528085 -0.38352054
0.703121 0.59658754 0.40482724 1.2997085 -0.19176027 -0.42613393 0.29829377 -0.55397415
0.14914688 -0.29829377 0.7244277 -0.7883478 -0.042613395 0.25568038 0.42613393 -1.0227215
-0.61789423 -0.9374947 -0.9801081 1.1931751 0.57528085 0.063920096 -0.34090716 -0.85226786
0.23437367 -0.23437367 -1.0653349 0.14914688 0.042613395 -0.063920096 0.9588014 0.14914688
0.042613395 1.4701622 0.14914688 0.042613395 -0.021306697 0.9374947 0.08522679 -0.25568038
-0.7670411 0.21306697 -0.34090716 -1.1079483 0.21306697 0.36221385 -0.08522679 0.85226786
-0.42613393 -1.1505617 1.5340822 0.17045358 -0.14914688 0.063920096 0.7883478 1.3423219
0.042613395 -0.021306697 -0.12784019 1.0866416 -0.40482724 1.0440282 0.29829377 -0.51136076
-0.021306697 -1.1079483 -0.08522679 0.10653348 0.19176027 -2.1306698 -0.063920096 0.27698708
0.21306697 0.6392009 0.042613395 0.23437367 2.471577 -0.36221385 -0.38352054 -0.34090716
-0.7244277 0.34090716 -0.6605076 1.7258425 0.34090716 0.14914688 -0.9801081 0.27698708
-0.21306697 0.063920096 -0.61789423 0.08522679 -0.042613395 0.8735746 -0.25568038 0.29829377
0.10653348 0.063920096 -0.042613395 -0.21306697 -0.19176027 -0.7457344 -0.021306697 0.042613395
-0.14914688 0.14914688 -0.916188 -0.38352054 -0.29829377 -0.27698708 -0.703121 0.0
-0.42613393 0.44744065 -0.10653348 0.042613395 -1.7684559 -0.14914688 -0.19176027 0.23437367
0.10653348 0.21306697 2.3437366 -0.703121 0.53266746 -0.042613395 -0.23437367 0.83096117
-0.08522679 0.021306697 -0.14914688 0.08522679 -0.063920096 0.12784019 0.17045358 0.12784019
-1.2997085 0.19176027 0.14914688 -0.10653348 0.19176027 -0.55397415 0.59658754 0.08522679
0.21306697 0.9588014 0.29829377 -0.34090716 0.7883478 0.12784019 -0.08522679 0.38352054
0.021306697 -0.6392009 -1.4488554 -0.7244277 0.9588014 0.0 0.08522679 0.57528085
0.10653348 -0.7883478 0.12784019 0.063920096 0.19176027 0.27698708 0.25568038 -0.12784019
2.5141902 0.021306697 -0.19176027 -0.021306697 0.38352054 -0.61789423 0.27698708 1.1079483
-0.31960046 1.7897626 0.36221385 0.31960046 1.5980023 -0.042613395 1.0227215 0.59658754
0.17045358 -1.0866416 -1.2357885 0.40482724 -0.51136076 -0.61789423 -0.23437367 -0.19176027
00000000: 8095 9b56 b473 9170 6f71 718e 849b a4a1
00000010: 7196 9093 8b2d 8e83 7b87 7b6d 8b8a 93a7
00000020: aea5 bbc1 8993 8aa1 8131 828d 8a01 4cdc
00000030: 3f6a 905c 8d95 885a 9268 7f78 826f 6e77
00000040: aaa5 9cc6 8075 976f 907b ab64 8795 9d59
00000050: 6c5d 5bc1 a48c 7961 947e 5790 8b86 b690
00000060: 8bce 908b 88b5 8d7d 6593 7955 939a 85b1
00000070: 7553 d191 828c aec8 8b88 83bc 76ba 9771
00000080: 8855 858e 9225 8696 93a7 8b94 fd78 7779
00000090: 6799 6ada 9990 5b96 7f8c 6c8d 87b2 7d97
000000a0: 8e8c 877f 8066 888b 8290 5e77 7b7c 6889
000000b0: 759e 848b 3682 8094 8e93 f768 a287 7eb0
000000c0: 858a 828d 868f 918f 4c92 9084 926f a58d
000000d0: 93b6 9779 ae8f 859b 8a6b 4567 b689 8da4
000000e0: 8e64 8f8c 9296 9583 ff8a 8088 9b6c 96bd
000000f0: 7add 9a98 d487 b9a5 9156 4f9c 716c 7e80

MobilenetV3/expanded_conv/squeeze_excite/Conv/weights_quant/FakeQuantWithMinMaxVars u1 [8, 1, 1, 16] scale=0.0036205363 zero_point=98
0.0 0.0 0.0 0.0 0.0 0.0 0.0 0.0
0.0 0.0 0.0 0.0 0.0 0.0 0.0 0.0
0.0 0.0 0.0 0.0 0.0 0.0 0.0 0.0
0.0 0.0 0.0 0.0 0.0 0.0 0.0 0.0
0.0 0.0 0.0 0.0 0.0 0.0 0.0 0.0
0.0 0.0 0.0 0.0 0.0 0.0 0.0 0.0
-0.0072410726 -0.13033931 -0.104995556 -0.025343753 0.20275003 0.5684242 -0.14844199 0.09413394
0.17740628 0.0 0.014482145 0.16654468 -0.24257593 0.17016521 -0.032584827 -0.04706697
0.0 0.10137501 0.10137501 0.032584827 0.0036205363 0.050687507 -0.025343753 0.010861609
-0.35119203 -0.014482145 0.039825898 -0.19550896 -0.04706697 0.12309823 -0.06879019 0.29326344
0.0 0.0 0.0 0.0 0.0 0.0 0.0 0.0
0.0 0.0 0.0 0.0 0.0 0.0 0.0 0.0
0.0 0.0 0.0 0.0 0.0 0.0 0.0 0.0
0.0 0.0 0.0 0.0 0.0 0.0 0.0 0.0
-0.0036205363 -0.14120091 -0.18826789 -0.09775448 -0.02896429 -0.21723218 -0.0072410726 -0.032584827
0.025343753 0.054308046 -0.12671877 0.054308046 -0.025343753 -0.1194777 0.0036205363 -0.22809379
00000000: 6262 6262 6262 6262 6262 6262 6262 6262
00000010: 6262 6262 6262 6262 6262 6262 6262 6262
00000020: 6262 6262 6262 6262 6262 6262 6262 6262
00000030: 603e 455b 9aff 397c 9362 6690 1f91 5955
00000040: 627e 7e6b 6370 5b65 015e 6d2c 5584 4fb3
00000050: 6262 6262 6262 6262 6262 6262 6262 6262
00000060: 6262 6262 6262 6262 6262 6262 6262 6262
00000070: 613b 2e47 5a26 6059 6971 3f71 5b41 6323

MobilenetV3/expanded_conv/squeeze_excite/Conv_1/weights_quant/FakeQuantWithMinMaxVars u1 [16, 1, 1, 8] scale=0.0037406583 zero_point=102
0.0 0.0 0.0 -0.0037406583 0.026184607 0.0 0.0 -0.04114724
0.0 0.0 0.0 0.093516454 -0.32543728 0.0 0.0 0.1608483
0.0 0.0 0.0 -0.06359119 -0.02244395 0.0 0.0 0.06733185
0.0 0.0 0.0 0.011221975 0.0037406583 0.0 0.0 0.014962633
0.0 0.0 0.0 0.0074813166 -0.0074813166 0.0 0.0 0.029925266
0.0 0.0 0.0 -0.37780648 -0.22069883 0.0 0.0 0.059850533
0.0 0.0 0.0 -0.08603514 0.014962633 0.0 0.0 0.037406582
0.0 0.0 0.0 0.011221975 0.026184607 0.0 0.0 -0.011221975
0.0 0.0 0.0 0.0037406583 0.0 0.0 0.0 0.011221975
0.0 0.0 0.0 -0.018703291 -0.0037406583 0.0 0.0 -0.059850533
0.0 0.0 0.0 0.0074813166 -0.1346637 0.0 0.0 0.078553826
0.0 0.0 0.0 -0.052369215 0.19825488 0.0 0.0 -0.11221975
0.0 0.0 0.0 0.5723207 -0.16458896 0.0 0.0 -0.04114724
0.0 0.0 0.0 -0.029925266 0.08229448 0.0 0.0 -0.24314278
0.0 0.0 0.0 -0.0897758 -0.0037406583 0.0 0.0 0.037406582
0.0 0.0 0.0 0.048628557 -0.0897758 0.0 0.0 0.0074813166
00000000: 6666 6665 6d66 665b 6666 667f 0f66 6691
00000010: 6666 6655 6066 6678 6666 6669 6766 666a
00000020: 6666 6668 6466 666e 6666 6601 2b66 6676
00000030: 6666 664f 6a66 6670 6666 6669 6d66 6663
00000040: 6666 6667 6666 6669 6666 6661 6566 6656
00000050: 6666 6668 4266 667b 6666 6658 9b66 6648
00000060: 6666 66ff 3a66 665b 6666 665e 7c66 6625
00000070: 6666 664e 6566 6670 6666 6673 4e66 6668

MobilenetV3/expanded_conv_1/depthwise/weights_quant/FakeQuantWithMinMaxVars u1 [1, 3, 3, 72] scale=0.061069645 zero_point=162
-1.7099501 -0.36641788 2.0152984 -0.91604465 0.24427858 0.12213929 -0.7939054 -0.18320894
0.12213929 0.12213929 2.1374376 -0.061069645 0.6717661 -0.24427858 0.061069645 -1.0381839
-0.85497504 0.0 -0.061069645 -0.42748752 0.85497504 0.12213929 2.1374376 0.0
-0.48855716 0.24427858 -0.5496268 0.30534822 0.0 -0.061069645 -0.061069645 -0.061069645
0.061069645 0.18320894 0.061069645 0.061069645 -0.73283577 3.3588305 -0.12213929 0.73283577
-0.18320894 -0.061069645 -0.42748752 -0.73283577 -0.9771143 -0.30534822 -0.24427858 -0.7939054
0.061069645 -1.0381839 0.61069643 -0.12213929 -0.061069645 0.73283577 -0.061069645 -0.30534822
0.0 -0.61069643 -1.0381839 0.12213929 -0.36641788 -0.30534822 -0.061069645 -1.0992537
0.73283577 0.12213929 -0.12213929 0.30534822 0.36641788 -0.061069645 -0.061069645 0.0
-4.091666 -0.91604465 -1.893159 0.24427858 0.6717661 -1.0992537 -0.18320894 -0.061069645
-1.1603233 -0.12213929 5.0687804 -0.24427858 1.5267411 -0.24427858 0.12213929 1.3435322
-2.0763679 0.12213929 -0.30534822 -0.36641788 1.0381839 0.061069645 1.4656715 -0.061069645
3.786318 0.30534822 -1.4656715 0.48855716 0.0 -0.12213929 -1.1603233 0.18320894
-0.42748752 0.12213929 -1.8320893 0.0 -1.7099501 -4.5191536 -0.18320894 1.7710197
-0.18320894 0.12213929 0.36641788 1.7099501 -2.4427857 -1.4656715 1.0992537 0.0
0.12213929 0.6717661 -1.4656715 0.0 -0.061069645 -0.85497504 -0.30534822 -0.48855716
0.0 0.061069645 0.12213929 0.30534822 1.4046018 -0.9771143 -0.12213929 -2.931343
-0.12213929 0.5496268 0.30534822 1.3435322 -0.7939054 -0.18320894 -0.18320894 0.061069645
-1.5878108 -0.18320894 0.061069645 0.5496268 0.48855716 1.0992537 0.73283577 0.061069645
-1.1603233 -0.12213929 1.4046018 -0.73283577 0.6717661 0.061069645 0.061069645 -0.18320894
-1.7710197 0.12213929 -0.30534822 -0.5496268 0.061069645 0.18320894 -3.6641786 -0.12213929
-2.4427857 0.18320894 -0.6717661 0.18320894 -0.061069645 -0.061069645 0.9771143 -0.48855716
-0.12213929 -0.61069643 1.3435322 0.061069645 -1.0992537 0.48855716 -0.061069645 0.61069643
0.12213929 0.12213929 -0.24427858 -1.0992537 -0.73283577 -0.73283577 -1.1603233 -0.85497504
0.061069645 0.48855716 -0.18320894 0.18320894 -0.061069645 0.18320894 -0.24427858 -0.36641788
0.0 1.3435322 0.85497504 0.18320894 -0.36641788 -0.6717661 0.061069645 -0.9771143
-1.1603233 -0.73283577 0.30534822 -1.1603233 0.36641788 -0.061069645 -0.24427858 0.0
0.9771143 -1.0381839 2.2595768 -1.0381839 0.24427858 0.30534822 -0.91604465 -0.18320894
-1.0992537 -0.061069645 -4.641293 0.12213929 -1.1603233 -0.61069643 0.12213929 -1.7099501
-0.18320894 0.0 -0.42748752 -0.5496268 0.5496268 -0.42748752 -3.4809697 -0.061069645
-1.6488804 0.24427858 0.9771143 0.7939054 -0.061069645 0.24427858 -0.12213929 1.3435322
-0.061069645 1.1603233 -0.18320894 0.061069645 1.2824626 -3.2366912 -0.18320894 -0.30534822
00000000: 869c c393 a6a4 959f a4a4 c5a1 ad9e a391
00000010: 94a2 a19b b0a4 c5a2 9aa6 99a7 a2a1 a1a1
00000020: a3a5 a3a3 96d9 a0ae 9fa1 9b96 929d 9e95
00000030: a391 aca0 a1ae a19d a298 91a4 9c9d a190
00000040: aea4 a0a7 a8a1 a1a2 5f93 83a6 ad90 9fa1
00000050: 8fa0 f59e bb9e a4b8 80a4 9d9c b3a3 baa1
00000060: e0a7 8aaa a2a0 8fa5 9ba4 84a2 8658 9fbf
00000070: 9fa4 a8be 7a8a b4a2 a4ad 8aa2 a194 9d9a
00000080: a2a3 a4a7 b992 a072 a0ab a7b8 959f 9fa3
00000090: 889f a3ab aab4 aea3 8fa0 b996 ada3 a39f
000000a0: 85a4 9d99 a3a5 66a0 7aa5 97a5 a1a1 b29a
000000b0: a098 b8a3 90aa a1ac a4a4 9e90 9696 8f94
000000c0: a3aa 9fa5 a1a5 9e9c a2b8 b0a5 9c97 a392
000000d0: 8f96 a78f a8a1 9ea2 b291 c791 a6a7 939f
000000e0: 90a1 56a4 8f98 a486 9fa2 9b99 ab9b 69a1
000000f0: 87a6 b2af a1a6 a0b8 a1b5 9fa3 b76d 9f9d

MobilenetV3/expanded_conv_1/expand/weights_quant/FakeQuantWithMinMaxVars u1 [72, 1, 1, 16] scale=0.004592349 zero_point=117
0.10562402 0.032146443 0.045923486 0.04133114 -0.004592349 -0.022961743 0.09184697 -0.027554093
-0.12399342 0.13777046 -0.07806993 0.10562402 -0.16073221 0.101031676 0.13777046 0.101031676
0.032146443 0.18369395 -0.03673879 -0.004592349 0.12399342 0.004592349 -0.08725463 0.013777046
0.21124804 -0.022961743 0.096439324 0.013777046 -0.11480872 0.013777046 0.06888523 0.027554093
0.045923486 0.022961743 -0.064292885 0.28472564 0.19287865 0.23880213 0.11021637 -0.19287865
-0.07347758 0.0 0.059700534 -0.050515838 -0.045923486 -0.004592349 -0.013777046 -0.28931797
0.19287865 -0.004592349 0.004592349 0.14695516 -0.11021637 -0.055108186 0.027554093 -0.022961743
0.050515838 -0.07347758 -0.08725463 0.013777046 0.013777046 0.027554093 0.04133114 0.08725463
0.096439324 -0.009184698 -0.14236282 0.14236282 -0.20206335 -0.1515475 0.018369395 -0.009184698
0.009184698 -0.1882863 0.06888523 0.032146443 0.0 0.07347758 -0.004592349 -0.027554093
0.11480872 -0.045923486 -0.14236282 0.059700534 -0.08725463 -0.11480872 0.06888523 -0.06888523
0.013777046 -0.25257918 0.018369395 -0.032146443 0.009184698 0.064292885 0.022961743 -0.022961743
-0.045923486 0.059700534 0.004592349 -0.11940107 0.14236282 -0.064292885 0.15613987 -0.032146443
-0.11480872 -0.096439324 -0.06888523 0.3490185 -0.08266228 0.009184698 0.15613987 -0.18369395
0.17450926 0.37198025 0.009184698 -0.03673879 0.013777046 -0.045923486 0.16073221 -0.13777046
0.03673879 0.03673879 0.17450926 0.08266228 -0.09184697 0.045923486 -0.027554093 0.04133114
-0.045923486 -0.04133114 -0.14236282 -0.07347758 0.11480872 0.07347758 0.009184698 -0.032146443
-0.009184698 0.050515838 -0.13317811 0.11021637 0.032146443 -0.11480872 -0.009184698 -0.1515475
0.21124804 -0.004592349 0.009184698 0.06888523 0.06888523 -0.18369395 0.18369395 -0.11480872
-0.09184697 0.14236282 -0.12399342 0.14695516 -0.004592349 0.12399342 -0.17450926 0.027554093
-0.013777046 -0.064292885 0.009184698 -0.009184698 -0.04133114 -0.004592349 0.0 -0.004592349
-0.055108186 0.0 -0.018369395 -0.013777046 0.032146443 -0.013777046 -0.022961743 -0.022961743
0.0 -0.018369395 -0.055108186 -0.06888523 0.055108186 -0.15613987 -0.06888523 -0.03673879
-0.032146443 -0.064292885 -0.1515475 0.33983383 -0.004592349 -0.2709486 0.009184698 -0.18369395
-0.013777046 0.004592349 0.35361087 0.1882863 0.032146443 0.06888523 0.004592349 -0.13317811
0.032146443 -0.2066557 0.032146443 0.07347758 0.06888523 -0.009184698 0.11021637 0.032146443
-0.17450926 -0.004592349 0.07347758 -0.07347758 0.11021637 0.17450926 0.022961743 -0.018369395
0.04133114 0.22043274 0.009184698 0.022961743 0.009184698 -0.07347758 0.04133114 0.045923486
0.06888523 -0.03673879 0.027554093 -0.11480872 0.064292885 -0.08266228 0.33524147 -0.15613987
0.027554093 -0.050515838 -0.013777046 -0.064292885 0.52352774 0.059700534 -0.45464253 0.022961743
0.10562402 -0.03673879 -0.15613987 0.1515475 -0.11940107 -0.101031676 0.055108186 -0.022961743
0.04133114 -0.197471 0.004592349 0.018369395 0.027554093 0.06888523 -0.004592349 0.018369395
00000000: 8c7c 7f7e 7470 896f 5a93 648c 528b 938b
00000010: 7c9d 6d74 9076 6278 a370 8a78 5c78 847b
00000020: 7f7a 67b3 9fa9 8d4b 6575 826a 6b74 7236
00000030: 9f74 7695 5d69 7b70 8065 6278 787b 7e88
00000040: 8a73 5694 4954 7973 774c 847c 7585 746f
00000050: 8e6b 5682 625c 8466 783e 796e 7783 7a70
00000060: 6b82 765b 9467 976e 5c60 66c1 6377 974d
00000070: 9bc6 776d 786b 9857 7d7d 9b87 617f 6f7e
00000080: 6b6c 5665 8e85 776e 7380 588d 7c5c 7354
00000090: a374 7784 844d 9d5c 6194 5a95 7490 4f7b
000000a0: 7267 7773 6c74 7574 6975 7172 7c72 7070
000000b0: 7571 6966 8153 666d 6e67 54bf 743a 774d
000000c0: 7276 c29e 7c84 7658 7c48 7c85 8473 8d7c
000000d0: 4f74 8565 8d9b 7a71 7ea5 777a 7765 7e7f
000000e0: 846d 7b5c 8363 be53 7b6a 7267 e782 127a
000000f0: 8c6d 5396 5b5f 8170 7e4a 7679 7b84 7479

MobilenetV3/expanded_conv_1/project/weights_quant/FakeQuantWithMinMaxVars u1 [24, 1, 1, 72] scale=0.0075856755 zero_point=113
-0.1517135 0.21998459 0.022757027 0.022757027 0.36411244 0.030342702 0.1517135 0.24274161
0.5461686 -0.1896419 0.29584134 0.44755486 0.52341163 0.12137081 -0.14412783 0.07585675
-0.3110127 -0.07585675 -0.09102811 0.0075856755 0.17447053 0.47789755 -0.42479783 -0.3716981
-0.41721216 -0.19722757 -0.12137081 0.31859836 -0.3337697 -0.022757027 0.09861378 0.12895648
0.35652673 -0.015171351 0.2503273 -0.07585675 0.38686946 -0.29584134 -0.38686946 0.18205622
0.015171351 0.16688485 0.08344243 0.022757027 0.4627262 0.21239892 0.07585675 -0.26549864
0.303427 0.32618403 -0.1517135 0.13654216 0.2503273 0.22757027 -0.19722757 -0.08344243
-0.2503273 -0.12895648 -0.022757027 0.14412783 -0.1896419 -0.4020408 -0.037928376 0.41721216
0.09861378 0.17447053 -0.022757027 -0.12137081 -0.08344243 0.28825566 0.29584134 0.32618403
-0.17447053 -0.09102811 0.2503273 -0.11378513 0.0075856755 0.29584134 -0.06827108 0.26549864
-0.22757027 0.015171351 -0.29584134 0.29584134 -0.8268386 -0.030342702 -0.4323835 0.29584134
0.47031188 -0.5006546 0.037928376 -0.037928376 -0.09861378 0.20481324 -0.08344243 0.0075856755
0.12137081 -0.10619946 -0.42479783 0.12895648 -0.17447053 0.07585675 0.1896419 -0.11378513
0.12137081 -0.045514055 -0.13654216 0.07585675 -0.7585676 0.08344243 -0.16688485 -0.28067
0.07585675 0.15929918 -0.015171351 0.26549864 -0.84959567 -0.09102811 0.022757027 0.060685404
-0.4323835 0.05309973 -0.20481324 0.10619946 0.32618403 -0.05309973 -0.2730843 -0.2730843
-0.1517135 0.015171351 0.015171351 0.13654216 0.060685404 0.3716981 -0.05309973 -0.34135538
0.20481324 -0.030342702 -0.10619946 -0.037928376 -0.030342702 0.045514055 0.1517135 0.15929918
-0.14412783 -0.3110127 -0.09861378 0.21998459 -0.303427 -0.1517135 0.25791296 0.022757027
0.022757027 0.39445513 -0.030342702 0.022757027 0.3792838 0.11378513 -0.3792838 -0.24274161
-0.14412783 -0.19722757 -0.12137081 0.21239892 -0.10619946 0.41721216 -0.037928376 -0.10619946
-0.030342702 0.5082403 -0.29584134 -0.28825566 -0.12137081 0.31859836 -0.21239892 -0.022757027
0.037928376 0.12137081 0.0075856755 0.5309973 0.42479783 0.06827108 -0.21998459 0.0
0.1517135 -0.06827108 0.05309973 -0.20481324 0.303427 0.25791296 0.17447053 0.07585675
-0.10619946 -0.09861378 0.17447053 -0.2503273 -0.3110127 -0.022757027 -0.13654216 -0.16688485
-0.07585675 0.045514055 0.1517135 0.5309973 0.12137081 0.4020408 -0.10619946 0.40962648
-0.34894106 0.13654216 -0.16688485 0.037928376 0.045514055 -0.47031188 -0.1517135 0.015171351
0.41721216 -0.015171351 0.045514055 0.045514055 -0.56134 0.12895648 0.1896419 0.10619946
0.21239892 -0.037928376 -0.11378513 -0.26549864 -0.19722757 0.17447053 -0.09102811 0.14412783
-0.35652673 0.12895648 0.34135538 0.037928376 0.4930689 -0.43996918 -0.303427 -0.13654216
-0.08344243 0.34135538 -0.28825566 -0.6371967 0.19722757 0.25791296 0.037928376 0.05309973
-0.29584134 0.1896419 0.34894106 0.13654216 -0.25791296 -0.08344243 -0.40962648 0.34135538
00000000: 5d8e 7474 a175 8591 b958 98ac b681 5e7b
00000010: 4867 6572 88b0 3940 3a57 619b 456e 7e82
00000020: a06f 9267 a44a 3e89 7387 7c74 ae8d 7b4e
00000030: 999c 5d83 928f 5766 5060 6e84 583c 6ca8
00000040: 7e88 6e61 6697 989c 5a65 9262 7298 6894
00000050: 5373 4a98 046d 3898 af2f 766c 648c 6672
00000060: 8163 3982 5a7b 8a62 816b 5f7b 0d7c 5b4c
00000070: 7b86 6f94 0165 7479 3878 567f 9c6a 4d4d
00000080: 5d73 7383 79a2 6a44 8c6d 636c 6d77 8586
00000090: 5e48 648e 495d 9374 74a5 6d74 a380 3f51
000000a0: 5e57 618d 63a8 6c63 6db4 4a4b 619b 556e
000000b0: 7681 72b7 a97a 5471 8568 7856 9993 887b
000000c0: 6364 8850 486e 5f5b 6777 85b7 81a6 63a7
000000d0: 4383 5b76 7733 5d73 a86f 7777 2782 8a7f
000000e0: 8d6c 624e 5788 6584 4282 9e76 b237 495f
000000f0: 669e 4b1d 8b93 7678 4a8a 9f83 4f66 3b9e

MobilenetV3/expanded_conv_10/depthwise/weights_quant/FakeQuantWithMinMaxVars u1 [1, 5, 5, 288] scale=0.09078392 zero_point=127
0.18156783 0.09078392 0.36313567 0.18156783 -0.18156783 0.4539196 -0.4539196 0.5447035
-0.4539196 0.0 0.4539196 -0.18156783 -0.09078392 -0.27235174 0.5447035 0.72627133
0.72627133 -0.63548744 0.09078392 0.18156783 -0.09078392 0.36313567 0.09078392 0.5447035
-0.36313567 0.18156783 -0.63548744 -0.36313567 -0.09078392 -0.18156783 0.5447035 -0.09078392
0.09078392 -0.4539196 0.4539196 -0.63548744 -0.18156783 0.09078392 0.18156783 -0.09078392
-0.09078392 -0.72627133 -0.36313567 0.27235174 -0.18156783 0.0 0.4539196 -0.36313567
0.4539196 0.0 -0.36313567 -0.09078392 -0.18156783 -0.36313567 0.0 -0.5447035
0.09078392 0.0 0.8170552 -0.09078392 0.18156783 -0.4539196 0.18156783 0.0
0.0 0.4539196 0.0 0.72627133 -0.63548744 0.09078392 -0.09078392 -0.36313567
0.4539196 0.0 -0.09078392 0.0 -0.18156783 0.09078392 0.18156783 0.0
-0.4539196 0.0 -0.27235174 0.4539196 0.5447035 -0.18156783 0.09078392 0.27235174
-0.09078392 0.18156783 0.36313567 0.63548744 -0.36313567 0.27235174 0.63548744 0.63548744
0.9986231 0.0 0.0 0.09078392 0.27235174 -0.9078392 0.36313567 -0.4539196
-1.4525427 0.5447035 -0.4539196 -0.09078392 -0.27235174 0.8170552 -0.63548744 0.5447035
0.09078392 0.4539196 0.18156783 0.0 0.5447035 0.0 0.18156783 0.09078392
0.5447035 0.27235174 0.27235174 -0.09078392 0.09078392 0.36313567 -0.09078392 0.27235174
0.0 -0.27235174 0.36313567 -0.5447035 0.0 -0.27235174 0.63548744 0.36313567
0.36313567 0.4539196 -0.27235174 -0.5447035 0.0 0.27235174 -0.4539196 -0.18156783
0.09078392 0.63548744 0.5447035 0.4539196 -0.36313567 0.0 -0.09078392 -0.18156783
-0.27235174 0.0 0.9986231 0.18156783 0.4539196 -0.09078392 0.09078392 -0.5447035
-0.18156783 -0.36313567 -0.36313567 0.27235174 0.5447035 -0.18156783 0.36313567 -0.09078392
-0.18156783 0.36313567 -0.09078392 0.36313567 0.27235174 -0.27235174 0.0 -0.09078392
-0.27235174 0.27235174 0.0 0.0 -0.18156783 -0.27235174 -0.9986231 0.0
0.5447035 0.36313567 0.0 0.0 0.09078392 -0.5447035 -0.4539196 -0.18156783
-0.18156783 -0.27235174 -0.27235174 0.5447035 0.27235174 0.27235174 -0.4539196 -0.18156783
0.36313567 -0.18156783 0.4539196 -0.09078392 -0.09078392 0.0 0.0 -0.18156783
0.27235174 -0.27235174 1.3617587 0.4539196 -0.4539196 0.27235174 -0.36313567 -0.09078392
0.0 0.18156783 0.5447035 -0.09078392 0.36313567 -0.18156783 -0.36313567 -0.36313567
3.177437 0.18156783 -0.36313567 -0.36313567 0.09078392 -0.4539196 0.18156783 -0.09078392
0.0 1.1801909 -1.1801909 -0.36313567 0.27235174 -0.18156783 0.27235174 0.09078392
0.8170552 0.09078392 0.0 -0.27235174 -0.27235174 2.3603818 -0.27235174 0.27235174
0.36313567 0.27235174 0.5447035 -0.09078392 0.18156783 -0.63548744 -0.09078392 -0.27235174
00000000: 8180 8381 7d84 7a85 7a7f 847d 7e7c 8587
00000010: 8778 8081 7e83 8085 7b81 787b 7e7d 857e
00000020: 807a 8478 7d80 817e 7e77 7b82 7d7f 847b
00000030: 847f 7b7e 7d7b 7f79 807f 887e 817a 817f
00000040: 7f84 7f87 7880 7e7b 847f 7e7f 7d80 817f
00000050: 7a7f 7c84 857d 8082 7e81 8386 7b82 8686
00000060: 8a7f 7f80 8275 837a 6f85 7a7e 7c88 7885
00000070: 8084 817f 857f 8180 8582 827e 8083 7e82
00000080: 7f7c 8379 7f7c 8683 8384 7c79 7f82 7a7d
00000090: 8086 8584 7b7f 7e7d 7c7f 8a81 847e 8079
000000a0: 7d7b 7b82 857d 837e 7d83 7e83 827c 7f7e
000000b0: 7c82 7f7f 7d7c 747f 8583 7f7f 8079 7a7d
000000c0: 7d7c 7c85 8282 7a7d 837d 847e 7e7f 7f7d
000000d0: 827c 8e84 7a82 7b7e 7f81 857e 837d 7b7b
000000e0: a281 7b7b 807a 817e 7f8c 727b 827d 8280
000000f0: 8880 7f7c 7c99 7c82 8382 857e 8178 7e7c

MobilenetV3/expanded_conv_10/expand/weights_quant/FakeQuantWithMinMaxVars u1 [288, 1, 1, 48] scale=0.0046189483 zero_point=106
0.12009266 -0.018475793 0.05080843 0.10161686 0.06466527 0.20323372 0.17552003 -0.06466527
-0.17552003 0.1247116 0.032332636 0.032332636 0.041570537 0.07390317 -0.041570537 0.032332636
-0.1247116 -0.0046189483 -0.07390317 0.18013899 0.05080843 -0.11547371 0.032332636 -0.009237897
-0.15704425 -0.08776002 0.10161686 0.0046189483 0.009237897 0.09699792 -0.036951587 0.25404215
-0.16166319 -0.06928422 0.08314107 0.023094742 -0.013856845 0.06466527 0.036951587 0.30946955
-0.16628215 -0.05080843 0.032332636 0.041570537 -0.18475793 0.05080843 -0.08776002 0.06466527
-0.08776002 0.14780635 -0.06004633 0.018475793 0.05542738 -0.1247116 -0.14780635 -0.036951587
-0.0046189483 -0.16628215 0.2586611 -0.08314107 -0.19399583 -0.12933055 -0.046189483 -0.07390317
-0.31870744 0.16166319 -0.036951587 0.16166319 0.046189483 -0.12009266 -0.009237897 -0.1431874
0.0046189483 0.21709058 -0.009237897 -0.15704425 -0.12933055 -0.06928422 0.17090109 0.06004633
0.02771369 -0.07390317 -0.009237897 -0.036951587 -0.16628215 -0.19861478 0.16166319 0.11085476
0.19861478 0.013856845 -0.06004633 -0.1247116 0.06928422 -0.11547371 0.19861478 -0.10161686
0.05542738 -0.05542738 -0.02771369 -0.0046189483 -0.009237897 0.013856845 -0.009237897 -0.036951587
-0.0046189483 -0.023094742 0.009237897 -0.032332636 0.05080843 0.023094742 -0.009237897 0.041570537
0.0 -0.032332636 -0.036951587 0.036951587 0.041570537 -0.036951587 -0.07852212 -0.06004633
-0.10623581 -0.041570537 -0.06466527 0.018475793 0.023094742 -0.036951587 0.018475793 -0.05080843
-0.05080843 -0.07852212 -0.05080843 -0.013856845 -0.05542738 -0.046189483 0.013856845 0.02771369
-0.06928422 -0.013856845 0.009237897 -0.09237897 -0.041570537 0.05542738 -0.023094742 -0.06928422
-0.013856845 0.0046189483 0.009237897 -0.0046189483 0.0046189483 -0.013856845 -0.032332636 0.009237897
0.032332636 0.013856845 -0.013856845 -0.023094742 0.013856845 -0.06004633 0.009237897 0.0046189483
-0.009237897 0.009237897 0.0 0.0 0.036951587 -0.023094742 0.02771369 -0.0046189483
-0.023094742 0.013856845 0.009237897 0.009237897 0.046189483 0.0 0.009237897 0.0046189483
-0.036951587 0.023094742 -0.036951587 0.018475793 -0.036951587 -0.0046189483 0.02771369 -0.023094742
-0.013856845 0.0 -0.02771369 -0.0046189483 0.013856845 0.0046189483 0.0 -0.013856845
-0.1247116 -0.09699792 -0.11085476 -0.06466527 0.2956127 -0.032332636 -0.17090109 0.26328006
0.19861478 0.19399583 0.12009266 -0.13856845 0.1247116 -0.23556636 0.19399583 0.39722955
0.39722955 0.15704425 -0.12009266 -0.14780635 0.1339495 0.14780635 0.20323372 -0.06928422
0.041570537 0.10161686 0.06004633 -0.15704425 0.22632846 -0.26328006 -0.12933055 0.1339495
-0.27251795 0.13856845 -0.08314107 0.05080843 -0.0046189483 0.09237897 0.0046189483 -0.08776002
-0.20785268 -0.05542738 -0.16628215 0.11085476 0.20323372 -0.06928422 0.023094742 -0.17090109
-0.02771369 0.05542738 0.07852212 0.14780635 -0.1339495 -0.06004633 -0.10161686 0.16166319
-0.02771369 -0.08314107 0.08314107 0.032332636 0.14780635 0.05542738 0.24018532 0.036951587
00000000: 8466 7580 7896 905c 4485 7171 737a 6171
00000010: 4f69 5a91 7551 7168 4857 806b 6c7f 62a1
00000020: 475b 7c6f 6778 72ad 465f 7173 4275 5778
00000030: 578a 5d6e 764f 4a62 6946 a258 404e 605a
00000040: 258d 628d 7450 684b 6b99 6848 4e5b 8f77
00000050: 705a 6862 463f 8d82 956d 5d4f 7951 9554
00000060: 765e 6469 686d 6862 6965 6c63 756f 6873
00000070: 6a63 6272 7362 595d 5361 5c6e 6f62 6e5f
00000080: 5f59 5f67 5e60 6d70 5b67 6c56 6176 655b
00000090: 676b 6c69 6b67 636c 716d 6765 6d5d 6c6b
000000a0: 686c 6a6a 7265 7069 656d 6c6c 746a 6c6b
000000b0: 626f 626e 6269 7065 676a 6469 6d6b 6a67
000000c0: 4f55 525c aa63 45a3 9594 844c 8537 94c0
000000d0: c08c 504a 878a 965b 7380 7748 9b31 4e87
000000e0: 2f88 5875 697e 6b57 3d5e 4682 965b 6f45
000000f0: 6476 7b8a 4d5d 548d 6458 7c71 8a76 9e72

MobilenetV3/expanded_conv_10/project/weights_quant/FakeQuantWithMinMaxVars u1 [48, 1, 1, 288] scale=0.016567746 zero_point=144
0.33135492 -0.5301679 0.62957436 -0.4307614 1.0272002 0.29821944 0.56330335 -0.36449042
-0.14910972 -0.033135492 0.0 -0.04970324 -0.04970324 -0.6461421 0.14910972 0.5301679
-0.89465827 -0.23194845 -0.62957436 -0.5964389 0.34792268 0.14910972 -0.69584537 0.0
0.08283873 -0.7786841 -0.49703237 -0.36449042 0.56330335 -0.33135492 -0.34792268 -0.29821944
0.44732913 -0.066270985 0.34792268 0.13254197 -0.19881296 0.0 -1.2260132 0.066270985
0.16567746 -0.04970324 -0.29821944 0.13254197 0.18224521 0.016567746 0.0 0.6461421
-0.18224521 -0.4638969 -0.9609293 -0.7621163 -0.09940648 0.016567746 -0.26508394 0.13254197
0.016567746 0.13254197 -0.16567746 0.28165168 0.13254197 -0.38105816 0.34792268 -0.115974225
-0.69584537 0.18224521 0.5964389 0.09940648 -0.4307614 -0.36449042 -0.6130066 -0.115974225
-0.62957436 0.2153807 -0.016567746 0.33135492 0.16567746 -0.24851619 0.016567746 -0.18224521
-0.2153807 -0.36449042 0.48046464 0.04970324 0.72898084 0.48046464 -0.24851619 0.66270983
-0.08283873 -0.19881296 1.3254197 0.016567746 -0.26508394 0.49703237 0.6130066 1.0272002
-0.34792268 -0.5301679 0.39762592 0.08283873 -0.29821944 0.54673564 -0.49703237 0.31478718
0.2153807 -0.54673564 -0.16567746 0.34792268 0.41419366 -0.31478718 -0.2153807 -0.44732913
0.4638969 0.13254197 0.24851619 0.18224521 -0.16567746 0.6461421 0.24851619 0.18224521
-0.48046464 0.33135492 0.31478718 -0.7124131 -0.13254197 0.48046464 -0.16567746 0.81181955
-0.44732913 0.066270985 -0.31478718 0.844955 0.16567746 0.66270983 -0.066270985 -0.26508394
-0.36449042 -0.36449042 0.14910972 -0.34792268 -0.33135492 -0.31478718 -0.23194845 -0.41419366
-0.115974225 -0.066270985 0.19881296 -0.7621163 -0.38105816 -0.14910972 -0.31478718 -0.5964389
-0.08283873 -0.33135492 -0.2153807 0.13254197 0.09940648 -0.41419366 -0.28165168 0.24851619
-0.44732913 0.26508394 0.34792268 0.54673564 -0.5136001 0.115974225 -0.09940648 0.18224521
-0.39762592 0.29821944 0.7621163 1.2922843 -0.016567746 -0.13254197 0.31478718 -0.49703237
0.24851619 -0.066270985 0.13254197 -0.13254197 -0.5964389 0.18224521 -0.5301679 0.23194845
-0.2153807 -0.5301679 -0.97749704 -0.2153807 0.23194845 0.04970324 -0.115974225 0.28165168
0.4307614 -0.09940648 -0.23194845 0.115974225 0.08283873 0.23194845 0.33135492 0.04970324
-0.24851619 0.7124131 0.44732913 0.49703237 -0.04970324 0.09940648 -0.115974225 -0.08283873
-0.5301679 0.08283873 0.39762592 0.2153807 0.26508394 0.33135492 0.33135492 0.49703237
-0.18224521 0.033135492 0.36449042 1.5408005 -0.115974225 0.7124131 0.4307614 -0.44732913
1.8390198 0.18224521 0.26508394 -0.56330335 -0.115974225 0.13254197 -0.2153807 -1.2757164
0.33135492 -0.97749704 0.18224521 -0.033135492 0.09940648 -0.016567746 0.39762592 -0.18224521
-0.39762592 0.6461421 -0.16567746 0.24851619 0.14910972 -0.24851619 -0.39762592 0.16567746
0.115974225 -0.36449042 -0.97749704 0.29821944 -0.14910972 0.8615228 0.26508394 -0.09940648
00000000: a470 b676 cea2 b27a 878e 908d 8d69 99b0
00000010: 5a82 6a6c a599 6690 9561 727a b27c 7b7e
00000020: ab8c a598 8490 4694 9a8d 7e98 9b91 90b7
00000030: 8574 5662 8a91 8098 9198 86a1 9879 a589
00000040: 669b b496 767a 6b89 6a9d 8fa4 9a81 9185
00000050: 837a ad93 bcad 81b8 8b84 e091 80ae b5ce
00000060: 7b70 a895 7eb1 72a3 9d6f 86a5 a97d 8375
00000070: ac98 9f9b 86b7 9f9b 73a4 a365 88ad 86c1
00000080: 7594 7dc3 9ab8 8c80 7a7a 997b 7c7d 8277
00000090: 898c 9c62 7987 7d6c 8b7c 8398 9677 7f9f
000000a0: 75a0 a5b1 7197 8a9b 78a2 bede 8f88 a372
000000b0: 9f8c 9888 6c9b 709e 8370 5583 9e93 89a1
000000c0: aa8a 8297 959e a493 81bb abae 8d96 898b
000000d0: 7095 a89d a0a4 a4ae 8592 a6ed 89bb aa75
000000e0: ff9b a06e 8998 8343 a455 9b8e 968f a885
000000f0: 78b7 869f 9981 789a 977a 55a2 87c4 a08a

MobilenetV3/expanded_conv_10/squeeze_excite/Conv/weights_quant/FakeQuantWithMinMaxVars u1 [72, 1, 1, 288] scale=0.0019301289 zero_point=108
0.005790387 -0.0077205156 0.0019301289 0.013510902 0.0077205156 -0.023161547 0.0019301289 0.0733449
0.009650645 -0.0038602578 -0.0038602578 -0.0019301289 -0.0077205156 0.005790387 0.005790387 -0.03474232
-0.03667245 0.0038602578 0.0038602578 -0.0038602578 -0.009650645 0.0077205156 0.0038602578 0.0
-0.0019301289 -0.030882062 0.0038602578 0.005790387 0.009650645 0.0077205156 -0.005790387 -0.0019301289
-0.015441031 -0.0019301289 -0.01930129 -0.0019301289 -0.005790387 0.0 -0.0077205156 -0.005790387
0.0019301289 -0.0038602578 -0.0019301289 -0.0019301289 0.0019301289 -0.0019301289 -0.005790387 -0.009650645
0.0019301289 0.0077205156 0.0077205156 0.0 -0.0019301289 -0.005790387 0.005790387 0.030882062
0.009650645 0.0019301289 0.0038602578 -0.0019301289 -0.015441031 0.0019301289 0.0019301289 -0.0038602578
-0.005790387 -0.009650645 0.0019301289 0.0077205156 -0.0038602578 0.009650645 -0.030882062 0.0
-0.042462837 -0.0019301289 0.005790387 -0.005790387 0.005790387 0.0077205156 0.0 0.005790387
0.005790387 -0.0038602578 0.013510902 0.01737116 -0.0038602578 0.028951934 -0.013510902 0.0
0.0077205156 0.0038602578 -0.09264619 0.0019301289 0.0 0.0038602578 0.013510902 -0.03667245
0.021231418 0.0019301289 -0.005790387 0.009650645 0.005790387 0.028951934 0.005790387 0.0
0.025091676 -0.021231418 0.0038602578 -0.0019301289 0.0019301289 0.015441031 -0.0038602578 0.005790387
0.009650645 -0.0019301289 -0.0038602578 0.0 -0.05597374 0.01930129 0.005790387 0.0019301289
0.028951934 -0.0038602578 0.013510902 0.005790387 0.0 -0.015441031 0.015441031 0.01930129
-0.01930129 0.005790387 -0.028951934 0.0019301289 0.005790387 0.0038602578 0.0019301289 0.0077205156
0.005790387 -0.0077205156 0.011580774 -0.0019301289 0.0019301289 0.05404361 -0.013510902 0.015441031
-0.028951934 -0.0019301289 0.011580774 -0.0019301289 -0.0019301289 -0.0019301289 0.0038602578 0.01737116
0.005790387 -0.01737116 -0.013510902 0.009650645 -0.025091676 0.0038602578 0.0 -0.005790387
0.0 -0.0019301289 0.0 -0.005790387 -0.005790387 0.0077205156 -0.0019301289 -0.0019301289
-0.011580774 -0.0077205156 -0.005790387 -0.0038602578 0.005790387 0.0077205156 0.005790387 -0.013510902
0.011580774 0.0077205156 0.011580774 0.005790387 0.01930129 0.013510902 0.005790387 0.0
-0.09071606 -0.01930129 0.005790387 0.0019301289 0.013510902 -0.0019301289 0.0038602578 0.009650645
0.005790387 0.025091676 -0.005790387 0.0077205156 0.0019301289 0.0038602578 -0.015441031 -0.0077205156
0.0038602578 0.0038602578 -0.0019301289 0.005790387 0.0077205156 -0.01737116 -0.0019301289 0.011580774
-0.0019301289 -0.005790387 0.005790387 0.0 -0.005790387 0.005790387 0.005790387 0.0
0.0038602578 -0.03474232 -0.009650645 0.011580774 0.0019301289 0.005790387 -0.0038602578 0.005790387
-0.005790387 0.011580774 0.0038602578 0.0 -0.0077205156 0.009650645 -0.013510902 0.027021805
-0.0038602578 0.048253223 0.0019301289 -0.0019301289 -0.04053271 -0.0077205156 0.0019301289 -0.0038602578
0.0038602578 -0.005790387 -0.009650645 0.0019301289 0.0077205156 0.0019301289 -0.0019301289 -0.027021805
-0.0019301289 -0.04053271 0.04053271 0.0 -0.015441031 0.0 0.009650645 0.005790387
00000000: 6f68 6d73 7060 6d92 716a 6a6b 686f 6f5a
00000010: 596e 6e6a 6770 6e6c 6b5c 6e6f 7170 696b
00000020: 646b 626b 696c 6869 6d6a 6b6b 6d6b 6967
00000030: 6d70 706c 6b69 6f7c 716d 6e6b 646d 6d6a
00000040: 6967 6d70 6a71 5c6c 566b 6f69 6f70 6c6f
00000050: 6f6a 7375 6a7b 656c 706e 3c6d 6c6e 7359
00000060: 776d 6971 6f7b 6f6c 7961 6e6b 6d74 6a6f
00000070: 716b 6a6c 4f76 6f6d 7b6a 736f 6c64 7476
00000080: 626f 5d6d 6f6e 6d70 6f68 726b 6d88 6574
00000090: 5d6b 726b 6b6b 6e75 6f63 6571 5f6e 6c69
000000a0: 6c6b 6c69 6970 6b6b 6668 696a 6f70 6f65
000000b0: 7270 726f 7673 6f6c 3d62 6f6d 736b 6e71
000000c0: 6f79 6970 6d6e 6468 6e6e 6b6f 7063 6b72
000000d0: 6b69 6f6c 696f 6f6c 6e5a 6772 6d6f 6a6f
000000e0: 6972 6e6c 6871 657a 6a85 6d6b 5768 6d6a
000000f0: 6e69 676d 706d 6b5e 6b57 816c 646c 716f

MobilenetV3/expanded_conv_10/squeeze_excite/Conv_1/weights_quant/FakeQuantWithMinMaxVars u1 [288, 1, 1, 72] scale=0.0016844732 zero_point=119
0.010106839 -0.025267098 0.0050534196 0.0033689465 -0.010106839 -0.032004993 -0.0033689465 0.0
0.006737893 0.0033689465 -0.020213678 -0.026951572 -0.0033689465 0.0 0.0050534196 0.0033689465
0.010106839 0.0 -0.008422366 0.008422366 0.0033689465 -0.006737893 -0.018529207 0.0
0.0 -0.008422366 -0.010106839 -0.0016844732 0.0033689465 0.006737893 -0.010106839 -0.008422366
-0.008422366 -0.020213678 -0.016844733 0.006737893 0.0016844732 0.0016844732 0.0033689465 -0.006737893
0.0033689465 0.0016844732 -0.013475786 0.010106839 -0.010106839 -0.0033689465 -0.015160259 0.008422366
0.006737893 -0.0033689465 -0.0016844732 -0.0033689465 0.0 -0.006737893 -0.016844733 -0.0016844732
0.0 0.0016844732 0.0033689465 0.0016844732 -0.018529207 0.006737893 0.0016844732 -0.013475786
0.0033689465 0.015160259 0.0 0.0 0.0016844732 -0.018529207 -0.0033689465 0.018529207
-0.047165252 -0.045480777 -0.0033689465 -0.050534196 -0.016844733 0.0016844732 0.028636046 -0.006737893
-0.010106839 -0.030320518 -0.05727209 -0.080854714 0.008422366 0.0 -0.006737893 0.023582626
-0.006737893 -0.040427357 -0.013475786 -0.0050534196 0.006737893 0.010106839 -0.082539186 0.0033689465
0.006737893 -0.033689465 -0.023582626 -0.0016844732 -0.006737893 -0.026951572 0.0016844732 0.030320518
-0.021898152 0.026951572 -0.033689465 0.018529207 0.035373937 0.053903144 -0.010106839 0.010106839
0.020213678 -0.015160259 -0.013475786 -0.038742885 -0.018529207 0.008422366 0.010106839 -0.042111833
-0.06232551 0.0016844732 -0.026951572 -0.026951572 0.0 -0.021898152 -0.0050534196 0.015160259
0.0 -0.0016844732 0.0 -0.06232551 -0.06400999 -0.042111833 -0.050534196 -0.0033689465
-0.0050534196 -0.011791313 0.0 0.0 -0.011791313 -0.052218672 -0.030320518 0.0033689465
0.015160259 -0.0050534196 0.0033689465 0.010106839 -0.0016844732 -0.008422366 0.0 0.0033689465
0.008422366 0.006737893 0.0033689465 -0.015160259 0.0033689465 0.0 -0.0016844732 -0.0016844732
0.011791313 0.011791313 0.0033689465 0.0 -0.0016844732 0.0033689465 -0.011791313 0.0
0.0033689465 -0.0050534196 -0.0050534196 -0.0050534196 0.0016844732 0.011791313 -0.0016844732 0.0016844732
0.0016844732 0.0016844732 -0.0016844732 0.008422366 0.0 0.0 0.0050534196 0.006737893
0.0016844732 0.0016844732 -0.0033689465 0.010106839 -0.0016844732 -0.0016844732 -0.0050534196 0.0050534196
0.010106839 0.0 0.006737893 0.0033689465 0.0 -0.0016844732 0.0033689465 0.0033689465
0.0 0.0 0.0 0.011791313 0.0033689465 0.0016844732 0.006737893 -0.028636046
0.0 0.016844733 0.0 0.0 0.0016844732 -0.006737893 0.006737893 0.015160259
0.06569446 -0.018529207 0.011791313 0.038742885 0.006737893 0.023582626 0.043796305 0.021898152
0.020213678 0.006737893 0.008422366 -0.038742885 0.052218672 0.0 -0.033689465 -0.026951572
0.058956563 0.042111833 0.013475786 0.015160259 -0.0033689465 0.053903144 -0.018529207 -0.0033689465
0.010106839 -0.018529207 -0.006737893 0.015160259 0.0033689465 0.028636046 0.050534196 0.047165252
0.0758013 0.06232551 0.020213678 0.013475786 -0.0033689465 -0.015160259 0.053903144 -0.052218672
00000000: 7d68 7a79 7164 7577 7b79 6b67 7577 7a79
00000010: 7d77 727c 7973 6c77 7772 7176 797b 7172
00000020: 726b 6d7b 7878 7973 7978 6f7d 7175 6e7c
00000030: 7b75 7675 7773 6d76 7778 7978 6c7b 786f
00000040: 7980 7777 786c 7582 5b5c 7559 6d78 8873
00000050: 7165 5547 7c77 7385 735f 6f74 7b7d 4679
00000060: 7b63 6976 7367 7889 6a87 6382 8c97 717d
00000070: 836e 6f60 6c7c 7d5e 5278 6767 776a 7480
00000080: 7776 7752 515e 5975 7470 7777 7058 6579
00000090: 8074 797d 7672 7779 7c7b 796e 7977 7676
000000a0: 7e7e 7977 7679 7077 7974 7474 787e 7678
000000b0: 7878 767c 7777 7a7b 7878 757d 7676 747a
000000c0: 7d77 7b79 7776 7979 7777 777e 7978 7b66
000000d0: 7781 7777 7873 7b80 9e6c 7e8e 7b85 9184
000000e0: 837b 7c60 9677 6367 9a90 7f80 7597 6c75
000000f0: 7d6c 7380 7988 9593 a49c 837f 756e 9758

MobilenetV3/expanded_conv_2/depthwise/weights_quant/FakeQuantWithMinMaxVars u1 [1, 3, 3, 88] scale=0.07126427 zero_point=184
0.35632133 0.0 -0.35632133 -0.28505707 -0.2137928 -1.852871 -0.2137928 -0.4275856
-0.14252853 -0.14252853 0.14252853 0.2137928 -0.2137928 -1.1402283 -1.2114925 -5.7011414
0.4275856 -0.07126427 0.9264355 0.57011414 0.2137928 0.49884987 0.07126427 -0.6413784
-0.2137928 0.0 -0.2137928 -1.5678139 0.0 -0.07126427 -1.6390781 -1.5678139
-0.99769974 -0.07126427 -3.7770061 -0.78390694 -0.07126427 0.6413784 -0.4275856 0.4275856
-0.14252853 0.14252853 -0.71264267 0.14252853 -0.2137928 0.07126427 -0.4275856 -0.2137928
0.4275856 -0.07126427 0.49884987 0.0 -0.14252853 -0.14252853 0.14252853 -0.35632133
-3.705742 -0.28505707 -0.57011414 -0.14252853 0.2137928 0.4275856 -1.9241352 -0.28505707
-4.774706 -0.57011414 -0.9264355 0.78390694 0.0 0.07126427 0.49884987 0.07126427
-0.07126427 -0.35632133 0.2137928 -0.14252853 -2.7793064 -0.28505707 0.14252853 -3.1356277
0.9264355 -0.35632133 -0.14252853 -0.07126427 -1.4252853 0.14252853 0.07126427 0.28505707
-0.14252853 0.35632133 0.35632133 -1.2827568 -0.14252853 -1.9953995 -1.7103424 -0.14252853
-0.8551712 0.57011414 -0.78390694 -0.07126427 0.0 -3.9195347 -0.49884987 -6.698841
-1.2827568 -0.2137928 1.2114925 -0.4275856 -1.1402283 -0.6413784 4.062063 3.491949
-0.28505707 0.07126427 -0.35632133 -0.4275856 -0.4275856 0.6413784 -1.3540211 -0.35632133
-2.7080421 0.4275856 -0.6413784 -0.57011414 -1.068964 -1.3540211 0.07126427 -0.4275856
-0.35632133 0.0 -3.9195347 -1.9241352 0.4275856 0.07126427 -0.35632133 0.4275856
-0.9264355 -0.35632133 0.57011414 1.6390781 1.2114925 0.2137928 0.14252853 0.2137928
-4.489649 -2.4942493 -0.6413784 0.4275856 -0.14252853 -0.35632133 -0.28505707 4.489649
-3.491949 -0.9264355 -2.2091923 -1.7816067 0.78390694 0.35632133 -1.9953995 -2.2091923
0.35632133 -1.1402283 -1.1402283 -0.49884987 -4.4183846 -0.4275856 -0.07126427 -0.9264355
-0.49884987 -0.28505707 0.4275856 0.2137928 -0.57011414 0.28505707 -0.28505707 -0.4275856
0.07126427 0.0 -0.2137928 -0.6413784 0.14252853 -1.2827568 -0.49884987 0.28505707
-2.6367779 -0.14252853 -0.35632133 0.35632133 0.14252853 -1.2827568 -3.1356277 -7.981598
0.49884987 -0.2137928 0.71264267 -0.28505707 1.2114925 0.4275856 -0.07126427 -0.49884987
-0.2137928 0.0 -0.2137928 -1.4252853 0.07126427 0.0 -1.6390781 1.068964
-0.6413784 -0.14252853 -0.28505707 -0.71264267 -0.07126427 0.57011414 -1.068964 0.49884987
-0.14252853 0.2137928 -0.71264267 0.2137928 -0.28505707 0.0 -0.57011414 -0.14252853
-0.71264267 -0.49884987 0.57011414 0.07126427 -0.2137928 0.2137928 0.07126427 -0.35632133
-1.9241352 -0.6413784 -0.6413784 -0.07126427 -0.28505707 -0.07126427 -1.4252853 -0.49884987
-3.8482704 -0.49884987 -0.49884987 0.07126427 0.07126427 0.14252853 -0.99769974 0.07126427
-0.07126427 -0.2137928 0.2137928 -0.2137928 -3.6344776 -0.07126427 0.35632133 -0.8551712
00000000: bdb8 b3b4 b59e b5b2 b6b6 babb b5a8 a768
00000010: beb7 c5c0 bbbf b9af b5b8 b5a2 b8b7 a1a2
00000020: aab7 83ad b7c1 b2be b6ba aeba b5b9 b2b5
00000030: beb7 bfb8 b6b6 bab3 84b4 b0b6 bbbe 9db4
00000040: 75b0 abc3 b8b9 bfb9 b7b3 bbb6 91b4 ba8c
00000050: c5b3 b6b7 a4ba b9bc b6bd bda6 b69c a0b6
00000060: acc0 adb7 b881 b15a a6b5 c9b2 a8af f1e9
00000070: b4b9 b3b2 b2c1 a5b3 92be afb0 a9a5 b9b2
00000080: b3b8 819d beb9 b3be abb3 c0cf c9bb babb
00000090: 7995 afbe b6b3 b4f7 87ab 999f c3bd 9c99
000000a0: bda8 a8b1 7ab2 b7ab b1b4 bebb b0bc b4b2
000000b0: b9b8 b5af baa6 b1bc 93b6 b3bd baa6 8c48
000000c0: bfb5 c2b4 c9be b7b1 b5b8 b5a4 b9b8 a1c7
000000d0: afb6 b4ae b7c0 a9bf b6bb aebb b4b8 b0b6
000000e0: aeb1 c0b9 b5bb b9b3 9daf afb7 b4b7 a4b1
000000f0: 82b1 b1b9 b9ba aab9 b7b5 bbb5 85b7 bdac
