app/tflite_graphs/seg_graph_i8.tflite (tflite, 681152 bytes, 56 tensors)

MobilenetV3/Conv/weights/read i1 [16, 3, 3, 3]
127 40 -15 113 31 -20 102 23
-28 41 -30 -65 29 -37 -70 15
-41 -71 -7 -68 -118 -10 -68 -119
-5 -51 -97 -111 -44 -92 -127 -55
-104 -104 -39 -86 -102 -35 -88 -124
-51 -105 -101 -35 -85 -74 -10 -63
-97 -30 -82 -80 -19 -67 -7 19
0 -35 -57 7 -83 -127 -11 9
2 -2 -15 -49 -3 -18 -81 -3
13 -2 -2 6 -18 8 47 -4
37 -84 -127 -61 -35 -35 -16 33
23 20 -50 -109 -21 -27 -29 -7
27 0 10 39 14 44 -2 11
2 3 -9 -12 62 127 54 23
76 17 30 79 14 41 69 -1
22 36 -16 28 44 2 -8 3
-18 25 13 7 -13 -13 -6 -86
16 89 -94 15 127 -78 10 78
-86 21 69 -94 22 107 -77 19
61 -93 27 69 -107 19 102 -82
24 64 7 -45 89 127 -11 97
43 37 54 -14 -31 13 86 -22
36 4 20 16 -32 40 5 20
-28 -4 -85 -39 -40 -41 22 -54
83 49 53 111 127 125 -104 19
-67 66 23 33 113 59 117 -110
48 -64 49 8 22 45 -21 66
42 -94 37 48 -127 49 42 -83
33 37 -95 39 45 -126 53 34
-87 29 34 -84 52 41 -113 67
25 -84 33 74 -79 24 90 -54
32 84 -48 6 -20 -113 -1 11
00000000: 7f28 f171 1fec 6617 e429 e2bf 1ddb ba0f
00000010: d7b9 f9bc 8af6 bc89 fbcd 9f91 d4a4 81c9
00000020: 9898 d9aa 9add a884 cd97 9bdd abb6 f6c1
00000030: 9fe2 aeb0 edbd f913 00dd c707 ad81 f509
00000040: 02fe f1cf fdee affd 0dfe fe06 ee08 2ffc
00000050: 25ac 81c3 dddd f021 1714 ce93 ebe5 e3f9
00000060: 1b00 0a27 0e2c fe0b 0203 f7f4 3e7f 3617
00000070: 4c11 1e4f 0e29 45ff 1624 f01c 2c02 f803
00000080: ee19 0d07 f3f3 faaa 1059 a20f 7fb2 0a4e
00000090: aa15 45a2 166b b313 3da3 1b45 9513 66ae
000000a0: 1840 07d3 597f f561 2b25 36f2 e10d 56ea
000000b0: 2404 1410 e028 0514 e4fc abd9 d8d7 16ca
000000c0: 5331 356f 7f7d 9813 bd42 1721 713b 7592
000000d0: 30c0 3108 162d eb42 2aa2 2530 8131 2aad
000000e0: 2125 a127 2d82 3522 a91d 22ac 3429 8f43
000000f0: 19ac 214a b118 5aca 2054 d006 ec8f ff0b

MobilenetV3/Conv_1/weights/read i1 [288, 1, 1, 48]
11 -41 38 32 20 -68 -40 -48
127 3 3 -26 31 36 22 4
17 -57 14 11 0 -73 54 -2
-8 6 -20 -27 40 -16 41 -53
0 43 11 33 -18 3 -62 11
-35 36 7 39 -3 4 26 -1
51 -53 18 23 12 43 -63 -70
127 -18 6 -43 7 34 -33 21
20 -80 83 9 1 -31 3 29
-59 26 45 -99 -50 -59 -24 -85
57 -48 -55 -32 10 -39 21 -11
-52 54 -2 -9 -7 -65 9 7
-87 -12 19 19 12 -59 29 22
-127 12 -15 -5 5 79 15 96
77 -69 31 13 69 1 49 20
-50 22 32 -37 39 -68 -24 22
38 36 -47 -1 11 -27 4 18
40 -88 8 -13 12 -61 30 2
59 48 24 -34 127 -30 -68 -102
32 -8 27 -81 -89 14 79 -61
31 18 25 23 -15 70 -48 -105
-32 -39 -93 29 -38 92 17 75
59 -24 -42 -46 7 60 -14 -46
50 127 -73 -86 51 -12 -4 -26
-30 42 -13 -29 9 -5 -12 -18
-49 24 -7 43 18 127 -14 30
-35 2 0 17 -19 -29 38 47
52 27 -30 -31 -35 15 3 -54
23 -16 4 -24 18 -16 2 34
-15 -19 -23 -1 -10 -3 35 -12
-41 -2 -77 49 -16 74 102 8
-17 -13 -78 14 -12 121 -56 35
00000000: 0bd7 2620 14bc d8d0 7f03 03e6 1f24 1604
00000010: 11c7 0e0b 00b7 36fe f806 ece5 28f0 29cb
00000020: 002b 0b21 ee03 c20b dd24 0727 fd04 1aff
00000030: 33cb 1217 0c2b c1ba 7fee 06d5 0722 df15
00000040: 14b0 5309 01e1 031d c51a 2d9d cec5 e8ab
00000050: 39d0 c9e0 0ad9 15f5 cc36 fef7 f9bf 0907
00000060: a9f4 1313 0cc5 1d16 810c f1fb 054f 0f60
00000070: 4dbb 1f0d 4501 3114 ce16 20db 27bc e816
00000080: 2624 d1ff 0be5 0412 28a8 08f3 0cc3 1e02
00000090: 3b30 18de 7fe2 bc9a 20f8 1baf a70e 4fc3
000000a0: 1f12 1917 f146 d097 e0d9 a31d da5c 114b
000000b0: 3be8 d6d2 073c f2d2 327f b7aa 33f4 fce6
000000c0: e22a f3e3 09fb f4ee cf18 f92b 127f f21e
000000d0: dd02 0011 ede3 262f 341b e2e1 dd0f 03ca
000000e0: 17f0 04e8 12f0 0222 f1ed e9ff f6fd 23f4
000000f0: d7fe b331 f04a 6608 eff3 b20e f479 c823

MobilenetV3/expanded_conv/depthwise/depthwise_weights/read i1 [1, 3, 3, 16]
-88 36 11 -62 127 9 -4 -86
44 -45 -39 -84 -27 73 3 86
-57 127 -7 2 105 127 8 -26
127 -127 -127 -127 114 19 12 127
-127 4 -22 57 58 49 33 26
14 -33 -64 -55 -2 82 -45 23
5 -9 127 -127 -26 -9 -127 -16
10 -19 4 -75 21 -108 127 25
25 100 15 9 6 59 -21 88
66 -50 6 -120 127 -127 116 87
-1 8 -92 125 3 15 113 127
7 -6 6 -36 7 13 -16 26
-10 -25 44 -50 -103 -6 -45 -83
-27 23 34 38 -23 78 -66 -55
40 -41 -16 0 -111 -44 7 -37
-46 38 120 13 -33 60 -32 -70
11 -19 -49 45 -64 -28 87 10
-7 49 62 75 -42 69 -13 -11
00000000: a824 0bc2 7f09 fcaa 2cd3 d9ac e549 0356
00000010: c77f f902 697f 08e6 7f81 8181 7213 0c7f
00000020: 8104 ea39 3a31 211a 0edf c0c9 fe52 d317
00000030: 05f7 7f81 e6f7 81f0 0aed 04b5 1594 7f19
00000040: 1964 0f09 063b eb58 42ce 0688 7f81 7457
00000050: ff08 a47d 030f 717f 07fa 06dc 070d f01a
00000060: f6e7 2cce 99fa d3ad e517 2226 e94e bec9
00000070: 28d7 f000 91d4 07db d226 780d df3c e0ba
00000080: 0bed cf2d c0e4 570a f931 3e4b d645 f3f5

MobilenetV3/expanded_conv/project/weights/read i1 [16, 1, 1, 16]
-22 30 44 -127 109 -57 20 -62
-65 -60 -61 11 -13 45 67 60
-34 19 9 14 3 -127 7 -9
-20 -2 -20 -38 3 1 14 41
33 26 46 54 1 12 2 23
-8 -82 -5 5 2 -127 -57 76
-127 -52 11 -78 6 20 -2 -83
18 -56 -18 -30 -13 -44 -48 -31
70 58 41 127 -20 -42 30 -52
13 -28 72 -76 -4 25 41 -100
-67 -99 -105 127 62 7 -36 -91
25 -25 -115 16 4 -7 103 16
4 127 12 4 -2 80 8 -22
-67 18 -29 -95 18 31 -8 74
-36 -96 127 15 -13 6 66 111
4 -2 -12 90 -34 87 25 -41
-1 -57 -5 5 9 -111 -4 15
10 33 1 11 127 -19 -19 -16
-54 26 -47 127 25 10 -73 21
-16 5 -45 6 -3 65 -19 21
13 8 -7 -28 -27 -102 -2 6
-21 20 -127 -53 -42 -38 -97 0
-22 24 -6 2 -96 -8 -11 13
6 12 127 -37 29 -3 -13 43
-10 2 -14 8 -6 12 18 12
-127 18 15 -10 19 -55 59 10
20 84 24 -31 69 12 -6 33
0 -56 -127 -63 83 1 8 51
6 -41 6 3 10 15 14 -6
127 1 -10 -1 19 -32 14 55
-22 127 25 25 115 -3 74 42
11 -78 -89 29 -36 -45 -15 -14
00000000: ea1e 2c81 6dc7 14c2 bfc4 c30b f32d 433c
00000010: de13 090e 0381 07f7 ecfe ecda 0301 0e29
00000020: 211a 2e36 010c 0217 f8ae fb05 0281 c74c
00000030: 81cc 0bb2 0614 fead 12c8 eee2 f3d4 d0e1
00000040: 463a 297f ecd6 1ecc 0de4 48b4 fc19 299c
00000050: bd9d 977f 3e07 dca5 19e7 8d10 04f9 6710
00000060: 047f 0c04 fe50 08ea bd12 e3a1 121f f84a
00000070: dca0 7f0f f306 426f 04fe f45a de57 19d7
00000080: ffc7 fb05 0991 fc0f 0a21 010b 7fed edf0
00000090: ca1a d17f 190a b715 f005 d306 fd41 ed15
000000a0: 0d08 f9e4 e59a fe06 eb14 81cb d6da 9f00
000000b0: ea18 fa02 a0f8 f50d 060c 7fdb 1dfd f32b
000000c0: f602 f208 fa0c 120c 8112 0ff6 13c9 3b0a
000000d0: 1454 18e1 450c fa21 00c8 81c1 5301 0833
000000e0: 06d7 0603 0a0f 0efa 7f01 f6ff 13e0 0e37
000000f0: ea7f 1919 73fd 4a2a 0bb2 a71d dcd3 f1f2

MobilenetV3/expanded_conv/squeeze_excite/Conv/weights/read i1 [8, 1, 1, 16]
-45 -55 35 -22 -31 90 39 -127
68 -35 66 -58 -101 -32 -38 54
81 -92 -7 72 55 -34 -44 -29
27 3 127 -55 -13 -49 -22 -46
24 -60 -23 -45 -9 59 -62 -26
-127 3 -38 -26 -87 51 98 -78
-2 -28 -24 -5 45 127 -34 21
40 0 3 37 -55 38 -8 -10
0 36 36 12 2 19 -9 4
-127 -5 15 -70 -17 44 -24 104
-5 -27 -6 -23 25 127 -8 -18
-21 9 8 -48 -77 -12 -92 40
127 -95 -81 -82 -33 -8 33 93
-106 37 -8 33 -69 38 41 -4
-1 -79 -104 -55 -15 -121 -3 -19
13 30 -70 29 -14 -67 2 -127
00000000: d3c9 23ea e15a 2781 44dd 42c6 9be0 da36
00000010: 51a4 f948 37de d4e3 1b03 7fc9 f3cf ead2
00000020: 18c4 e9d3 f73b c2e6 8103 dae6 a933 62b2
00000030: fee4 e8fb 2d7f de15 2800 0325 c926 f8f6
00000040: 0024 240c 0213 f704 81fb 0fba ef2c e868
00000050: fbe5 fae9 197f f8ee eb09 08d0 b3f4 a428
00000060: 7fa1 afae dff8 215d 9625 f821 bb26 29fc
00000070: ffb1 98c9 f187 fded 0d1e ba1d f2bd 0281

MobilenetV3/expanded_conv/squeeze_excite/Conv_1/weights/read i1 [16, 1, 1, 8]
0 0 0 -13 73 0 0 -127
0 0 0 37 -127 0 0 63
0 0 0 -127 -43 0 0 121
0 0 0 95 17 0 0 127
0 0 0 45 -24 0 0 127
0 0 0 -127 -75 0 0 21
0 0 0 -127 26 0 0 57
0 0 0 52 127 -1 0 -58
0 0 0 30 13 1 0 127
0 0 0 -40 -7 -1 0 -127
0 0 0 8 -127 0 0 74
0 0 0 -32 127 0 0 -73
0 0 0 127 -36 0 0 -9
0 0 0 -15 43 0 0 -127
0 0 0 -127 -6 0 0 52
0 0 0 69 -127 0 0 11
00000000: 0000 00f3 4900 0081 0000 0025 8100 003f
00000010: 0000 0081 d500 0079 0000 005f 1100 007f
00000020: 0000 002d e800 007f 0000 0081 b500 0015
00000030: 0000 0081 1a00 0039 0000 0034 7fff 00c6
00000040: 0000 001e 0d01 007f 0000 00d8 f9ff 0081
00000050: 0000 0008 8100 004a 0000 00e0 7f00 00b7
00000060: 0000 007f dc00 00f7 0000 00f1 2b00 0081
00000070: 0000 0081 fa00 0034 0000 0045 8100 000b

MobilenetV3/expanded_conv_1/depthwise/depthwise_weights/read i1 [1, 3, 3, 72]
-53 -15 114 -113 37 8 -80 -48
15 45 27 -14 28 -35 28 -64
-47 0 -7 -25 52 13 74 -8
-16 60 -49 53 -3 -17 -5 -4
6 20 1 14 -32 82 -29 55
-101 -8 -41 -29 -22 -19 -7 -84
24 -60 22 -14 -22 52 -12 -49
0 -40 -54 59 -10 -41 -34 -44
51 7 -17 8 41 -43 -40 7
-127 -39 -106 29 101 -70 -20 -15
-125 -49 65 -44 68 -32 59 82
-118 35 -46 -23 61 6 51 -34
127 73 -127 80 -15 -39 -68 14
-46 14 -43 -11 -71 -111 -52 127
-85 28 35 67 -54 -87 32 2
40 40 -51 -1 -32 -65 -76 -69
-15 5 7 127 39 -127 -56 -116
-7 43 52 32 -83 -126 -90 14
-49 -9 3 70 78 68 76 17
-127 -49 18 -127 30 6 48 -12
-100 39 -40 -33 4 27 -127 -47
-82 41 -59 27 -34 -9 59 -34
-16 -65 30 18 -47 12 -27 45
58 24 -26 -44 -16 -46 -33 -86
15 28 -7 18 -17 12 -70 -52
-3 84 46 80 -10 -91 19 -39
-82 -57 51 -26 37 -53 -118 6
30 -45 127 -127 38 20 -94 -48
-122 -14 -60 16 -52 -90 62 -107
-11 10 -61 -36 33 -52 -122 -35
-56 58 81 127 -49 60 -5 100
-4 127 -4 37 54 -80 -48 -24
00000000: cbf1 728f 2508 b0d0 0f2d 1bf2 1cdd 1cc0
00000010: d100 f9e7 340d 4af8 f03c cf35 fdef fbfc
00000020: 0614 010e e052 e337 9bf8 d7e3 eaed f9ac
00000030: 18c4 16f2 ea34 f4cf 00d8 ca3b f6d7 ded4
00000040: 3307 ef08 29d5 d807 81d9 961d 65ba ecf1
00000050: 83cf 41d4 44e0 3b52 8a23 d2e9 3d06 33de
00000060: 7f49 8150 f1d9 bc0e d20e d5f5 b991 cc7f
00000070: ab1c 2343 caa9 2002 2828 cdff e0bf b4bb
00000080: f105 077f 2781 c88c f92b 3420 ad82 a60e
00000090: cff7 0346 4e44 4c11 81cf 1281 1e06 30f4
000000a0: 9c27 d8df 041b 81d1 ae29 c51b def7 3bde
000000b0: f0bf 1e12 d10c e52d 3a18 e6d4 f0d2 dfaa
000000c0: 0f1c f912 ef0c bacc fd54 2e50 f6a5 13d9
000000d0: aec7 33e6 25cb 8a06 1ed3 7f81 2614 a2d0
000000e0: 86f2 c410 cca6 3e95 f50a c3dc 21cc 86dd
000000f0: c83a 517f cf3c fb64 fc7f fc25 36b0 d0e8

MobilenetV3/expanded_conv_1/expand/weights/read i1 [72, 1, 1, 16]
83 27 33 32 -5 -17 71 -21
-96 110 -59 79 -127 82 107 80
20 110 -21 -3 75 4 -51 6
127 -15 60 7 -69 9 39 16
21 11 -28 126 83 104 49 -87
-31 0 28 -23 -21 -1 -7 -127
127 -2 4 95 -72 -34 18 -16
32 -48 -57 7 8 19 28 57
62 -6 -92 91 -127 -94 14 -8
5 -119 43 21 -1 47 -2 -19
59 -22 -75 31 -45 -60 36 -38
8 -127 10 -14 3 35 11 -11
-15 21 1 -43 50 -25 56 -12
-43 -36 -26 127 -30 2 56 -67
59 127 5 -14 6 -16 54 -46
14 12 59 29 -32 16 -10 15
-37 -33 -119 -59 97 59 6 -26
-8 38 -109 93 28 -95 -8 -127
127 -2 6 39 45 -115 111 -69
-55 86 -75 93 -2 75 -104 16
-29 -127 15 -23 -75 -10 1 -8
-103 -3 -34 -28 63 -25 -42 -42
0 -8 -20 -26 21 -59 -27 -13
-12 -24 -56 127 -1 -102 4 -68
-5 1 127 68 13 26 1 -47
12 -74 11 27 25 -5 39 12
-102 -3 42 -43 64 101 13 -11
24 127 5 14 4 -43 23 27
17 -8 5 -28 15 -20 81 -38
7 -12 -3 -16 127 15 -110 6
68 -23 -104 100 -78 -66 38 -19
27 -127 5 12 16 47 -2 10
00000000: 531b 2120 fbef 47eb a06e c54f 8152 6b50
00000010: 146e ebfd 4b04 cd06 7ff1 3c07 bb09 2710
00000020: 150b e47e 5368 31a9 e100 1ce9 ebff f981
00000030: 7ffe 045f b8de 12f0 20d0 c707 0813 1c39
00000040: 3efa a45b 81a2 0ef8 0589 2b15 ff2f feed
00000050: 3bea b51f d3c4 24da 0881 0af2 0323 0bf5
00000060: f115 01d5 32e7 38f4 d5dc e67f e202 38bd
00000070: 3b7f 05f2 06f0 36d2 0e0c 3b1d e010 f60f
00000080: dbdf 89c5 613b 06e6 f826 935d 1ca1 f881
00000090: 7ffe 0627 2d8d 6fbb c956 b55d fe4b 9810
000000a0: e381 0fe9 b5f6 01f8 99fd dee4 3fe7 d6d6
000000b0: 00f8 ece6 15c5 e5f3 f4e8 c87f ff9a 04bc
000000c0: fb01 7f44 0d1a 01d1 0cb6 0b1b 19fb 270c
000000d0: 9afd 2ad5 4065 0df5 187f 050e 04d5 171b
000000e0: 11f8 05e4 0fec 51da 07f4 fdf0 7f0f 9206
000000f0: 44e9 9864 b2be 26ed 1b81 050c 102f fe0a

MobilenetV3/expanded_conv_1/project/weights/read i1 [24, 1, 1, 72]
-35 50 4 5 85 7 34 57
127 -44 68 103 121 28 -32 18
-72 -18 -20 2 39 112 -97 -85
-96 -46 -26 74 -77 -5 21 30
81 -3 58 -17 88 -68 -89 44
3 40 18 4 107 51 18 -62
70 75 -35 30 59 52 -45 -18
-59 -30 -5 32 -44 -92 -9 96
22 40 -4 -29 -19 67 70 74
-27 -14 38 -17 2 44 -11 40
-33 2 -44 44 -124 -5 -66 45
71 -76 6 -5 -15 31 -12 1
19 -15 -63 19 -27 11 29 -17
19 -6 -20 11 -113 13 -26 -42
11 24 -3 40 -127 -14 3 9
-64 8 -30 15 49 -8 -41 -41
-23 2 2 21 9 55 -7 -51
32 -4 -16 -6 -4 8 23 25
-35 -73 -24 54 -73 -37 62 4
4 94 -7 6 93 28 -91 -57
-36 -49 -28 51 -27 101 -9 -27
-8 122 -74 -70 -29 76 -51 -4
9 26 0 127 100 16 -52 2
37 -17 13 -49 73 64 43 19
-28 -23 41 -60 -74 -5 -32 -40
-19 10 38 126 30 95 -24 98
-85 31 -40 9 12 -113 -36 3
82 -2 10 9 -113 25 38 21
42 -8 -22 -52 -38 35 -18 26
-68 26 68 8 98 -88 -60 -26
-16 69 -58 -127 40 52 8 11
-59 39 69 26 -51 -17 -81 69
00000000: dd32 0405 5507 2239 7fd4 4467 791c e012
00000010: b8ee ec02 2770 9fab a0d2 e64a b3fb 151e
00000020: 51fd 3aef 58bc a72c 0328 1204 6b33 12c2
00000030: 464b dd1e 3b34 d3ee c5e2 fb20 d4a4 f760
00000040: 1628 fce3 ed43 464a e5f2 26ef 022c f528
00000050: df02 d42c 84fb be2d 47b4 06fb f11f f401
00000060: 13f1 c113 e50b 1def 13fa ec0b 8f0d e6d6
00000070: 0b18 fd28 81f2 0309 c008 e20f 31f8 d7d7
00000080: e902 0215 0937 f9cd 20fc f0fa fc08 1719
00000090: ddb7 e836 b7db 3e04 045e f906 5d1c a5c7
000000a0: dccf e433 e565 f7e5 f87a b6ba e34c cdfc
000000b0: 091a 007f 6410 cc02 25ef 0dcf 4940 2b13
000000c0: e4e9 29c4 b6fb e0d8 ed0a 267e 1e5f e862
000000d0: ab1f d809 0c8f dc03 52fe 0a09 8f19 2615
000000e0: 2af8 eacc da23 ee1a bc1a 4408 62a8 c4e6
000000f0: f045 c681 2834 080b c527 451a cdef af45

MobilenetV3/expanded_conv_10/depthwise/depthwise_weights/read i1 [1, 5, 5, 288]
23 27 21 3 -69 127 -114 127
-73 -12 76 -76 -16 -40 21 120
88 -77 8 62 -19 6 34 92
-65 75 -127 -125 -20 -14 122 -19
42 -80 52 -85 -10 5 21 -18
-8 -102 -19 51 -8 3 26 -45
63 -2 -105 -16 -10 -93 14 -101
6 4 45 -13 30 -122 46 3
-6 64 -5 120 -36 30 -9 -51
70 -2 -4 0 -11 19 75 0
-116 0 -78 93 95 -85 2 107
-23 39 77 68 -46 24 31 41
108 2 4 8 107 -127 50 -127
-110 95 -115 -9 -103 127 -127 19
32 44 10 0 85 3 15 15
113 41 27 -4 8 85 -8 73
-1 -11 82 -127 1 -40 47 73
39 53 -101 -55 -16 56 -40 -58
14 58 108 127 -57 5 -15 -42
-84 -1 101 6 101 -31 6 -107
-16 -46 -118 39 96 -2 35 -8
-24 16 -14 47 126 -66 7 -1
-97 56 11 -1 -53 -100 -127 0
70 40 -14 -1 8 -89 -125 -49
-100 -15 -13 36 30 28 -52 -18
113 -11 76 -12 -42 0 2 -26
10 -26 32 39 -23 72 -100 -5
5 40 110 -17 49 -8 -102 -127
104 26 -31 -20 29 -13 12 -10
-4 63 -26 -60 62 -15 35 32
68 13 3 -46 -10 26 -87 95
112 67 108 -3 19 -90 -15 -86
00000000: 171b 1503 bb7f 8e7f b7f4 4cb4 f0d8 1578
00000010: 58b3 083e ed06 225c bf4b 8183 ecf2 7aed
00000020: 2ab0 34ab f605 15ee f89a ed33 f803 1ad3
00000030: 3ffe 97f0 f6a3 0e9b 0604 2df3 1e86 2e03
00000040: fa40 fb78 dc1e f7cd 46fe fc00 f513 4b00
00000050: 8c00 b25d 5fab 026b e927 4d44 d218 1f29
00000060: 6c02 0408 6b81 3281 925f 8df7 997f 8113
00000070: 202c 0a00 5503 0f0f 7129 1bfc 0855 f849
00000080: fff5 5281 01d8 2f49 2735 9bc9 f038 d8c6
00000090: 0e3a 6c7f c705 f1d6 acff 6506 65e1 0695
000000a0: f0d2 8a27 60fe 23f8 e810 f22f 7ebe 07ff
000000b0: 9f38 0bff cb9c 8100 4628 f2ff 08a7 83cf
000000c0: 9cf1 f324 1e1c ccee 71f5 4cf4 d600 02e6
000000d0: 0ae6 2027 e948 9cfb 0528 6eef 31f8 9a81
000000e0: 681a e1ec 1df3 0cf6 fc3f e6c4 3ef1 2320
000000f0: 440d 03d2 f61a a95f 7043 6cfd 13a6 f1aa

MobilenetV3/expanded_conv_10/expand/weights/read i1 [288, 1, 1, 48]
48 -9 18 42 26 82 73 -28
-73 50 13 12 18 32 -15 12
-50 -3 -30 74 19 -46 13 -5
-67 -35 43 1 3 39 -16 104
-66 -27 32 8 -7 28 15 127
-70 -20 16 15 -78 19 -36 26
-35 60 -24 8 23 -51 -60 -15
-3 -68 103 -34 -77 -51 -20 -29
-127 64 -15 65 19 -47 -4 -56
3 87 -3 -63 -50 -27 68 22
9 -29 -3 -14 -67 -79 64 44
79 5 -24 -48 27 -45 80 -41
66 -65 -29 -8 -11 15 -12 -43
-4 -28 14 -38 61 28 -11 52
-3 -39 -40 43 49 -44 -90 -69
-127 -51 -74 19 29 -44 21 -62
-60 -92 -56 -14 -66 -54 17 33
-80 -19 12 -108 -51 64 -29 -80
-32 12 23 -9 9 -26 -68 17
69 26 -28 -45 34 -127 23 8
-22 16 -5 -3 77 -51 51 -5
-50 32 17 16 98 -1 21 4
-73 46 -74 40 -77 -6 54 -47
-26 -3 -59 -6 29 14 0 -32
-40 -29 -36 -19 95 -10 -56 85
65 63 38 -45 40 -76 61 127
127 51 -39 -48 44 47 66 -21
14 32 21 -51 73 -85 -41 43
-88 45 -27 17 -1 28 1 -29
-67 -18 -54 37 66 -23 9 -55
-11 23 33 61 -54 -24 -40 66
-11 -33 32 13 60 19 97 15
00000000: 30f7 122a 1a52 49e4 b732 0d0c 1220 f10c
00000010: cefd e24a 13d2 0dfb bddd 2b01 0327 f068
00000020: bee5 2008 f91c 0f7f baec 100f b213 dc1a
00000030: dd3c e808 17cd c4f1 fdbc 67de b3cd ece3
00000040: 8140 f141 13d1 fcc8 0357 fdc1 cee5 4416
00000050: 09e3 fdf2 bdb1 402c 4f05 e8d0 1bd3 50d7
00000060: 42bf e3f8 f50f f4d5 fce4 0eda 3d1c f534
00000070: fdd9 d82b 31d4 a6bb 81cd b613 1dd4 15c2
00000080: c4a4 c8f2 beca 1121 b0ed 0c94 cd40 e3b0
00000090: e00c 17f7 09e6 bc11 451a e4d3 2281 1708
000000a0: ea10 fbfd 4dcd 33fb ce20 1110 62ff 1504
000000b0: b72e b628 b3fa 36d1 e6fd c5fa 1d0e 00e0
000000c0: d8e3 dced 5ff6 c855 413f 26d3 28b4 3d7f
000000d0: 7f33 d9d0 2c2f 42eb 0e20 15cd 49ab d72b
000000e0: a82d e511 ff1c 01e3 bdee ca25 42e9 09c9
000000f0: f517 213d cae8 d842 f5df 200d 3c13 610f

MobilenetV3/expanded_conv_10/project/weights/read i1 [48, 1, 1, 288]
24 -36 45 -28 70 18 36 -23
-10 -2 0 -4 -4 -44 11 37
-61 -17 -41 -41 25 9 -48 -1
6 -54 -34 -25 39 -23 -23 -21
31 -5 25 10 -14 0 -84 5
11 -2 -20 9 12 0 0 44
-14 -31 -65 -52 -6 2 -19 9
1 9 -11 19 9 -27 24 -7
-47 13 41 7 -30 -25 -43 -8
-43 15 -2 23 12 -18 1 -13
-15 -25 33 4 51 33 -18 46
-6 -14 91 1 -17 33 42 70
-24 -37 26 6 -19 38 -34 21
14 -38 -11 24 28 -22 -15 -31
32 9 18 13 -11 44 17 12
-31 22 22 -50 -9 34 -13 56
-30 5 -21 56 10 46 -6 -18
-25 -25 10 -24 -22 -23 -15 -29
-8 -6 14 -52 -26 -9 -22 -41
-6 -23 -14 9 6 -29 -19 16
-30 19 24 39 -36 8 -7 13
-27 20 52 89 -2 -9 22 -34
18 -5 9 -9 -42 13 -38 18
-15 -37 -67 -14 16 3 -9 19
30 -7 -16 9 6 16 22 5
-15 50 31 36 -5 7 -8 -5
-35 5 27 14 19 22 23 35
-13 3 25 106 -7 51 28 -30
127 13 19 -38 -8 9 -14 -86
24 -67 13 -2 8 -1 28 -12
-27 45 -11 17 10 -17 -29 12
6 -24 -68 21 -11 60 16 -6
00000000: 18dc 2de4 4612 24e9 f6fe 00fc fcd4 0b25
00000010: c3ef d7d7 1909 d0ff 06ca dee7 27e9 e9eb
00000020: 1ffb 190a f200 ac05 0bfe ec09 0c00 002c
00000030: f2e1 bfcc fa02 ed09 0109 f513 09e5 18f9
00000040: d10d 2907 e2e7 d5f8 d50f fe17 0cee 01f3
00000050: f1e7 2104 3321 ee2e faf2 5b01 ef21 2a46
00000060: e8db 1a06 ed26 de15 0eda f518 1cea f1e1
00000070: 2009 120d f52c 110c e116 16ce f722 f338
00000080: e205 eb38 0a2e faee e7e7 0ae8 eae9 f1e3
00000090: f8fa 0ecc e6f7 ead7 fae9 f209 06e3 ed10
000000a0: e213 1827 dc08 f90d e514 3459 fef7 16de
000000b0: 12fb 09f7 d60d da12 f1db bdf2 1003 f713
000000c0: 1ef9 f009 0610 1605 f132 1f24 fb07 f8fb
000000d0: dd05 1b0e 1316 1723 f303 196a f933 1ce2
000000e0: 7f0d 13da f809 f2aa 18bd 0dfe 08ff 1cf4
000000f0: e52d f511 0aef e30c 06e8 bc15 f53c 10fa

MobilenetV3/expanded_conv_10/squeeze_excite/Conv/weights/read i1 [72, 1, 1, 288]
7 -12 2 18 11 -31 3 100
12 -7 -6 -2 -11 7 8 -48
-51 5 6 -6 -13 10 5 1
-3 -43 5 9 13 11 -7 -3
-21 -1 -26 -1 -7 -1 -10 -7
2 -5 -2 -3 2 -4 -8 -13
2 11 11 0 -1 -7 7 43
13 3 5 -3 -20 1 3 -5
-8 -14 3 11 -4 14 -42 -1
-57 -2 7 -9 8 11 0 9
7 -5 18 25 -4 41 -19 0
10 5 -127 3 0 6 19 -51
30 1 -8 13 9 39 8 -1
35 -29 6 -4 3 20 -4 8
13 -3 -6 1 -77 27 7 3
40 -7 18 8 0 -20 21 27
-26 8 -39 3 7 5 3 9
8 -10 17 -2 1 74 -17 21
-39 -3 16 -3 -2 -3 6 25
7 -24 -19 13 -35 6 -1 -7
-1 -4 0 -9 -7 10 -2 -3
-16 -10 -8 -6 7 11 7 -19
15 11 15 7 26 18 8 0
-124 -27 8 3 17 -3 6 13
8 34 -7 9 4 4 -21 -10
6 5 -3 9 11 -23 -3 16
-2 -9 8 -1 -8 7 7 0
4 -48 -12 16 3 7 -4 7
-7 16 6 -1 -10 13 -19 38
-5 66 2 -2 -54 -9 4 -5
5 -7 -12 3 10 3 -3 -38
-2 -56 55 0 -22 -1 12 7
00000000: 07f4 0212 0be1 0364 0cf9 fafe f507 08d0
00000010: cd05 06fa f30a 0501 fdd5 0509 0d0b f9fd
00000020: ebff e6ff f9ff f6f9 02fb fefd 02fc f8f3
00000030: 020b 0b00 fff9 072b 0d03 05fd ec01 03fb
00000040: f8f2 030b fc0e d6ff c7fe 07f7 080b 0009
00000050: 07fb 1219 fc29 ed00 0a05 8103 0006 13cd
00000060: 1e01 f80d 0927 08ff 23e3 06fc 0314 fc08
00000070: 0dfd fa01 b31b 0703 28f9 1208 00ec 151b
00000080: e608 d903 0705 0309 08f6 11fe 014a ef15
00000090: d9fd 10fd fefd 0619 07e8 ed0d dd06 fff9
000000a0: fffc 00f7 f90a fefd f0f6 f8fa 070b 07ed
000000b0: 0f0b 0f07 1a12 0800 84e5 0803 11fd 060d
000000c0: 0822 f909 0404 ebf6 0605 fd09 0be9 fd10
000000d0: fef7 08ff f807 0700 04d0 f410 0307 fc07
000000e0: f910 06ff f60d ed26 fb42 02fe caf7 04fb
000000f0: 05f9 f403 0a03 fdda fec8 3700 eaff 0c07

MobilenetV3/expanded_conv_10/squeeze_excite/Conv_1/weights/read i1 [288, 1, 1, 72]
38 -101 23 11 -39 -127 -14 1
30 15 -76 -104 -14 0 23 10
40 -1 -30 35 15 -25 -71 2
3 -33 -38 -6 13 30 -39 -32
-31 -77 -65 25 4 9 15 -24
16 7 -50 40 -39 -16 -60 31
28 -15 -9 -16 1 -30 -63 -7
0 10 12 6 -73 29 5 -54
15 63 0 0 10 -74 -11 72
-72 -70 -5 -78 -26 4 45 -9
-16 -46 -88 -126 13 0 -11 38
-12 -63 -20 -8 11 15 -127 5
11 -52 -35 -2 -11 -41 2 49
-35 43 -51 28 56 84 -15 17
32 -25 -22 -61 -30 13 15 -66
-96 4 -43 -41 0 -35 -7 24
0 -4 -1 -96 -100 -65 -78 -6
-7 -18 0 0 -18 -80 -46 5
67 -22 15 47 -8 -40 2 14
36 27 12 -65 15 0 -5 -6
51 50 14 2 -6 12 -53 -1
13 -23 -19 -22 10 55 -6 10
10 10 -5 36 -1 0 24 29
8 4 -17 47 -5 -4 -25 23
49 -1 28 11 -1 -5 16 17
0 2 2 50 12 8 32 -127
0 78 0 0 4 -28 29 66
92 -25 18 55 10 32 60 30
29 9 13 -53 73 0 -46 -38
83 59 19 22 -5 75 -27 -4
13 -25 -9 20 5 41 70 65
105 86 28 18 -4 -20 76 -72
00000000: 269b 170b d981 f201 1e0f b498 f200 170a
00000010: 28ff e223 0fe7 b902 03df dafa 0d1e d9e0
00000020: e1b3 bf19 0409 0fe8 1007 ce28 d9f0 c41f
00000030: 1cf1 f7f0 01e2 c1f9 000a 0c06 b71d 05ca
00000040: 0f3f 0000 0ab6 f548 b8ba fbb2 e604 2df7
00000050: f0d2 a882 0d00 f526 f4c1 ecf8 0b0f 8105
00000060: 0bcc ddfe f5d7 0231 dd2b cd1c 3854 f111
00000070: 20e7 eac3 e20d 0fbe a004 d5d7 00dd f918
00000080: 00fc ffa0 9cbf b2fa f9ee 0000 eeb0 d205
00000090: 43ea 0f2f f8d8 020e 241b 0cbf 0f00 fbfa
000000a0: 3332 0e02 fa0c cbff 0de9 edea 0a37 fa0a
000000b0: 0a0a fb24 ff00 181d 0804 ef2f fbfc e717
000000c0: 31ff 1c0b fffb 1011 0002 0232 0c08 2081
000000d0: 004e 0000 04e4 1d42 5ce7 1237 0a20 3c1e
000000e0: 1d09 0dcb 4900 d2da 533b 1316 fb4b e5fc
000000f0: 0de7 f714 0529 4641 6956 1c12 fcec 4cb8

MobilenetV3/expanded_conv_2/depthwise/depthwise_weights/read i1 [1, 3, 3, 88]
81 9 -22 -10 -18 -122 -15 -64
-3 -28 12 65 -11 -36 -42 -82
46 -16 92 103 16 15 2 -23
-26 -2 -72 -62 1 -2 -84 -15
-45 -3 -127 -26 -10 20 -10 17
-11 98 -14 7 -23 127 -11 -16
15 -18 17 0 -14 -14 30 -24
-98 -9 -16 -12 43 71 -127 -7
-127 -25 -44 37 -5 4 34 2
-10 -37 27 -30 -73 -47 55 -127
37 -30 -20 -22 -108 21 5 16
-33 112 21 -45 -10 -127 -127 -22
-14 92 -73 -12 1 -127 -17 -97
-127 -47 120 -80 -87 -19 100 127
-33 7 -121 -17 -20 13 -70 -3
-126 23 -22 -21 -122 -42 2 -18
-23 16 -82 -84 46 122 -9 38
-34 -91 18 127 126 30 32 13
-120 -76 -20 47 -20 -55 -19 127
-93 -43 -105 -83 127 24 -127 -127
47 -116 -127 -127 -115 -76 -27 -37
-19 -26 77 52 -45 43 -30 -26
23 3 -14 -23 10 -81 -38 40
-45 -22 -34 127 6 -42 -109 -115
50 -44 73 -58 92 13 -1 -18
-23 -1 -84 -58 3 0 -87 10
-31 -8 -10 -24 -5 17 -24 20
-10 127 -15 10 -28 32 -15 -14
-26 -127 18 6 -22 31 19 -23
-51 -20 -18 -7 -47 -7 -92 -13
-102 -23 -22 3 15 8 -64 6
-10 -22 25 -53 -94 -18 124 -35
00000000: 5109 eaf6 ee86 f1c0 fde4 0c41 f5dc d6ae
00000010: 2ef0 5c67 100f 02e9 e6fe b8c2 01fe acf1
00000020: d3fd 81e6 f614 f611 f562 f207 e97f f5f0
00000030: 0fee 1100 f2f2 1ee8 9ef7 f0f4 2b47 81f9
00000040: 81e7 d425 fb04 2202 f6db 1be2 b7d1 3781
00000050: 25e2 ecea 9415 0510 df70 15d3 f681 81ea
00000060: f25c b7f4 0181 ef9f 81d1 78b0 a9ed 647f
00000070: df07 87ef ec0d bafd 8217 eaeb 86d6 02ee
00000080: e910 aeac 2e7a f726 dea5 127f 7e1e 200d
00000090: 88b4 ec2f ecc9 ed7f a3d5 97ad 7f18 8181
000000a0: 2f8c 8181 8db4 e5db ede6 4d34 d32b e2e6
000000b0: 1703 f2e9 0aaf da28 d3ea de7f 06d6 938d
000000c0: 32d4 49c6 5c0d ffee e9ff acc6 0300 a90a
000000d0: e1f8 f6e8 fb11 e814 f67f f10a e420 f1f2
000000e0: e681 1206 ea1f 13e9 cdec eef9 d1f9 a4f3
000000f0: 9ae9 ea03 0f08 c006 f6ea 19cb a2ee 7cdd

MobilenetV3/expanded_conv_2/expand/weights/read i1 [88, 1, 1, 24]
-45 44 21 -31 99 -126 -72 -48
-53 -25 -84 14 -126 -34 127 -53
123 -72 -83 111 -39 42 -125 58
-121 -86 -48 59 -126 -15 57 -65
-33 -34 127 -43 97 19 -85 -5
93 -57 57 -14 -40 -46 8 -126
-14 34 58 49 19 15 11 127
-4 11 70 32 -46 49 -111 -9
-8 -45 -12 85 -1 -72 -19 -62
13 -100 26 84 -37 71 -52 82
29 -63 77 -1 -23 75 -127 90
-2 37 78 -115 -6 -34 -73 -103
-14 -22 47 -46 -14 44 -1 -95
-14 -127 4 18 58 -46 -16 -42
1 58 -23 103 -69 23 -71 94
-127 2 20 7 10 22 -45 21
58 -48 40 -90 -43 2 -51 -23
12 0 75 5 -76 -82 41 90
-127 41 26 34 -42 -14 57 113
-4 30 29 -78 30 -114 -34 39
-52 -17 64 -38 10 10 -17 -9
-30 -99 -66 82 -44 -54 37 -121
95 -73 -124 120 -30 -121 -55 -67
-2 52 -8 -56 20 63 -127 -81
33 91 -45 -49 30 127 -38 61
-13 37 -53 -18 120 -24 -19 62
28 -97 44 13 63 -98 -44 -104
-20 64 30 -127 -32 -48 6 19
-2 -18 68 -37 -52 -70 -93 -5
-27 66 91 -21 63 11 38 56
-54 -38 -46 -3 23 81 -127 -13
34 107 -64 -60 29 105 -8 33
00000000: d32c 15e1 6382 b8d0 cbe7 ac0e 82de 7fcb
00000010: 7bb8 ad6f d92a 833a 87aa d03b 82f1 39bf
00000020: dfde 7fd5 6113 abfb 5dc7 39f2 d8d2 0882
00000030: f222 3a31 130f 0b7f fc0b 4620 d231 91f7
00000040: f8d3 f455 ffb8 edc2 0d9c 1a54 db47 cc52
00000050: 1dc1 4dff e94b 815a fe25 4e8d fade b799
00000060: f2ea 2fd2 f22c ffa1 f281 0412 3ad2 f0d6
00000070: 013a e967 bb17 b95e 8102 1407 0a16 d315
00000080: 3ad0 28a6 d502 cde9 0c00 4b05 b4ae 295a
00000090: 8129 1a22 d6f2 3971 fc1e 1db2 1e8e de27
000000a0: ccef 40da 0a0a eff7 e29d be52 d4ca 2587
000000b0: 5fb7 8478 e287 c9bd fe34 f8c8 143f 81af
000000c0: 215b d3cf 1e7f da3d f325 cbee 78e8 ed3e
000000d0: 1c9f 2c0d 3f9e d498 ec40 1e81 e0d0 0613
000000e0: feee 44db ccba a3fb e542 5beb 3f0b 2638
000000f0: cada d2fd 1751 81f3 226b c0c4 1d69 f821

MobilenetV3/expanded_conv_2/project/weights/read i1 [24, 1, 1, 88]
0 13 28 0 38 0 40 9
0 0 9 0 -16 0 0 0
32 -17 -49 43 38 0 -54 -96
88 -47 -27 0 -56 0 0 0
-6 26 0 -62 0 0 0 59
-10 0 0 -127 -39 0 114 25
0 1 52 -18 -54 7 -28 29
0 -19 -38 -2 0 14 0 47
0 80 0 43 78 54 0 -11
12 0 -25 -1 0 -57 0 0
29 33 -5 -23 0 -13 21 -15
0 -13 -12 0 -26 0 30 13
0 3 -3 0 14 0 0 0
42 -28 -28 -2 7 27 -34 25
21 118 -17 0 -16 -29 0 0
-90 -6 0 -38 0 0 0 6
2 0 0 13 19 0 65 0
0 1 -127 57 -11 -18 26 73
0 -41 -39 3 0 -32 0 -43
0 -4 0 -49 -8 2 0 -3
-11 0 -26 25 0 6 0 0
-43 51 -34 -27 0 13 -36 77
0 36 -2 0 35 0 -38 24
0 -1 -40 0 43 0 0 0
8 19 -39 -10 3 110 -70 -43
-2 25 -30 0 -14 -29 0 0
-42 -50 0 -15 0 0 0 3
10 0 0 -127 24 0 -13 -42
0 -2 -66 -102 36 -1 64 5
0 -7 33 -13 0 -12 0 -79
0 28 0 -36 -75 -22 0 43
-5 0 19 56 0 16 0 0
00000000: 000d 1c00 2600 2809 0000 0900 f000 0000
00000010: 20ef cf2b 2600 caa0 58d1 e500 c800 0000
00000020: fa1a 00c2 0000 003b f600 0081 d900 7219
00000030: 0001 34ee ca07 e41d 00ed dafe 000e 002f
00000040: 0050 002b 4e36 00f5 0c00 e7ff 00c7 0000
00000050: 1d21 fbe9 00f3 15f1 00f3 f400 e600 1e0d
00000060: 0003 fd00 0e00 0000 2ae4 e4fe 071b de19
00000070: 1576 ef00 f0e3 0000 a6fa 00da 0000 0006
00000080: 0200 000d 1300 4100 0001 8139 f5ee 1a49
00000090: 00d7 d903 00e0 00d5 00fc 00cf f802 00fd
000000a0: f500 e619 0006 0000 d533 dee5 000d dc4d
000000b0: 0024 fe00 2300 da18 00ff d800 2b00 0000
000000c0: 0813 d9f6 036e bad5 fe19 e200 f2e3 0000
000000d0: d6ce 00f1 0000 0003 0a00 0081 1800 f3d6
000000e0: 00fe be9a 24ff 4005 00f9 21f3 00f4 00b1
000000f0: 001c 00dc b5ea 002b fb00 1338 0010 0000

MobilenetV3/expanded_conv_3/depthwise/depthwise_weights/read i1 [1, 5, 5, 96]
-9 15 0 5 -24 -12 -6 -18
3 -4 -2 -7 1 -30 2 -10
-2 -6 -1 -1 -23 17 -12 -12
0 24 10 9 -1 4 -6 1
12 -18 4 -14 -22 -14 5 9
-2 13 6 9 -12 -20 -20 1
29 1 -6 -12 7 3 -10 -4
-3 20 -5 -7 -14 -11 -11 4
5 10 -7 -5 6 -5 18 25
7 18 -9 -6 3 4 8 -13
-13 -23 -2 21 -3 20 12 -12
1 -1 9 2 -2 8 -10 -12
-15 -2 -5 2 -35 -26 26 13
23 9 -3 0 7 -19 -29 -49
19 -47 -39 -25 -38 5 -19 -27
3 19 -1 16 12 8 -12 -1
28 -23 9 -13 -27 -69 9 38
-33 2 -1 18 -16 -41 23 19
-4 -4 28 -18 -5 0 -2 -21
-13 13 -3 -21 2 -11 -34 11
4 25 -14 23 10 6 58 37
44 14 -18 -13 12 -1 3 -18
-30 -2 2 48 -27 24 24 -2
-43 -24 -8 -16 4 15 -6 -12
-10 -8 -14 -8 -38 -32 11 19
48 6 7 7 6 -8 -37 -76
16 -81 -61 -39 -39 -18 -18 -18
-7 12 -21 7 25 -9 -22 -38
34 -10 -44 -17 -37 -101 2 68
-57 -23 1 38 -22 -48 -2 -15
-16 -28 -29 -32 -18 -14 -6 -9
-18 -8 -1 -29 11 4 -73 3
00000000: f70f 0005 e8f4 faee 03fc fef9 01e2 02f6
00000010: fefa ffff e911 f4f4 0018 0a09 ff04 fa01
00000020: 0cee 04f2 eaf2 0509 fe0d 0609 f4ec ec01
00000030: 1d01 faf4 0703 f6fc fd14 fbf9 f2f5 f504
00000040: 050a f9fb 06fb 1219 0712 f7fa 0304 08f3
00000050: f3e9 fe15 fd14 0cf4 01ff 0902 fe08 f6f4
00000060: f1fe fb02 dde6 1a0d 1709 fd00 07ed e3cf
00000070: 13d1 d9e7 da05 ede5 0313 ff10 0c08 f4ff
00000080: 1ce9 09f3 e5bb 0926 df02 ff12 f0d7 1713
00000090: fcfc 1cee fb00 feeb f30d fdeb 02f5 de0b
000000a0: 0419 f217 0a06 3a25 2c0e eef3 0cff 03ee
000000b0: e2fe 0230 e518 18fe d5e8 f8f0 040f faf4
000000c0: f6f8 f2f8 dae0 0b13 3006 0707 06f8 dbb4
000000d0: 10af c3d9 d9ee eeee f90c eb07 19f7 eada
000000e0: 22f6 d4ef db9b 0244 c7e9 0126 ead0 fef1
000000f0: f0e4 e3e0 eef2 faf7 eef8 ffe3 0b04 b703

MobilenetV3/expanded_conv_3/expand/weights/read i1 [96, 1, 1, 24]
-61 -47 5 51 -118 22 -28 -35
25 6 14 15 34 -4 -127 36
19 -63 -58 -9 -21 -58 -58 -12
-1 -2 -54 67 18 20 20 10
-48 -19 -31 -127 -59 -47 -69 -29
35 16 -80 39 9 46 45 48
-7 61 45 -1 0 -62 5 -61
73 -19 47 54 83 -103 -76 49
24 127 -23 30 18 -85 5 -15
-108 72 121 -127 -47 3 27 45
98 -31 6 -75 21 -101 -59 6
-25 103 -1 86 34 -80 42 2
31 64 -5 5 -41 -23 127 10
29 -7 39 17 -40 25 -15 10
-8 0 -15 -57 -108 -19 80 39
64 -9 20 46 12 -36 -127 53
11 -29 9 -11 51 77 20 -27
9 48 -12 -100 -25 68 2 13
-14 -88 -11 44 23 107 86 5
-20 -10 2 11 54 -68 -38 34
7 -127 59 56 -41 -40 122 -22
-57 127 -14 19 5 -1 8 100
10 7 19 -8 -18 -1 -4 -17
12 -15 -3 7 11 -23 -37 -1
39 12 -27 24 30 -65 21 -127
-19 -36 -47 27 11 9 -74 -29
42 -12 14 -9 -40 72 -5 -38
-46 127 -49 31 56 -20 9 7
35 -7 -5 -22 7 26 7 11
-1 58 23 29 6 8 -13 6
-53 -49 21 4 26 21 -10 22
-14 -6 -13 -20 23 23 10 -9
00000000: c3d1 0533 8a16 e4dd 1906 0e0f 22fc 8124
00000010: 13c1 c6f7 ebc6 c6f4 fffe ca43 1214 140a
00000020: d0ed e181 c5d1 bbe3 2310 b027 092e 2d30
00000030: f93d 2dff 00c2 05c3 49ed 2f36 5399 b431
00000040: 187f e91e 12ab 05f1 9448 7981 d103 1b2d
00000050: 62e1 06b5 159b c506 e767 ff56 22b0 2a02
00000060: 1f40 fb05 d7e9 7f0a 1df9 2711 d819 f10a
00000070: f800 f1c7 94ed 5027 40f7 142e 0cdc 8135
00000080: 0be3 09f5 334d 14e5 0930 f49c e744 020d
00000090: f2a8 f52c 176b 5605 ecf6 020b 36bc da22
000000a0: 0781 3b38 d7d8 7aea c77f f213 05ff 0864
000000b0: 0a07 13f8 eeff fcef 0cf1 fd07 0be9 dbff
000000c0: 270c e518 1ebf 1581 eddc d11b 0b09 b6e3
000000d0: 2af4 0ef7 d848 fbda d27f cf1f 38ec 0907
000000e0: 23f9 fbea 071a 070b ff3a 171d 0608 f306
000000f0: cbcf 1504 1a15 f616 f2fa f3ec 1717 0af7

MobilenetV3/expanded_conv_3/project/weights/read i1 [40, 1, 1, 96]
-53 -14 -15 39 -43 -127 16 90
6 0 -69 12 65 -37 18 -32
-12 -115 21 -13 20 11 16 39
17 33 3 18 -53 -2 21 2
18 -2 7 -3 -38 -51 29 -37
-19 -51 -2 -45 -16 -14 6 -1
-3 42 -16 -47 -2 -10 3 14
18 -12 -28 7 -10 54 0 -5
24 -5 -37 31 4 28 1 -11
2 38 0 1 -4 12 -4 52
-12 -35 -14 25 6 35 -33 44
39 -14 49 -13 17 -7 -16 -28
-1 27 33 -123 -12 8 -21 26
75 76 -1 80 -91 -62 -37 -83
-38 21 -14 17 -53 18 98 -52
-127 51 41 -30 9 92 28 -27
62 75 -18 28 21 16 -18 -21
5 10 56 45 -89 -15 7 -36
-16 29 -2 -63 -77 27 9 -66
98 -24 65 18 29 1 -11 -11
6 57 93 -66 -8 -60 20 3
51 -25 -115 -24 -25 18 -11 -114
28 -9 -3 54 -15 -7 82 31
7 18 -94 73 23 13 119 -109
-18 -61 40 20 12 60 19 6
-37 -30 -74 -42 -8 6 -6 27
-8 -52 60 -56 112 49 -20 -9
-13 -4 -36 82 51 -65 -47 -21
-88 -56 -28 69 5 -24 24 -27
114 -110 -31 10 -33 32 70 25
21 6 -10 124 -25 6 -57 4
-64 127 12 -30 -65 -70 44 57
00000000: cbf2 f127 d581 105a 0600 bb0c 41db 12e0
00000010: f48d 15f3 140b 1027 1121 0312 cbfe 1502
00000020: 12fe 07fd dacd 1ddb edcd fed3 f0f2 06ff
00000030: fd2a f0d1 fef6 030e 12f4 e407 f636 00fb
00000040: 18fb db1f 041c 01f5 0226 0001 fc0c fc34
00000050: f4dd f219 0623 df2c 27f2 31f3 11f9 f0e4
00000060: ff1b 2185 f408 eb1a 4b4c ff50 a5c2 dbad
00000070: da15 f211 cb12 62cc 8133 29e2 095c 1ce5
00000080: 3e4b ee1c 1510 eeeb 050a 382d a7f1 07dc
00000090: f01d fec1 b31b 09be 62e8 4112 1d01 f5f5
000000a0: 0639 5dbe f8c4 1403 33e7 8de8 e712 f58e
000000b0: 1cf7 fd36 f1f9 521f 0712 a249 170d 7793
000000c0: eec3 2814 0c3c 1306 dbe2 b6d6 f806 fa1b
000000d0: f8cc 3cc8 7031 ecf7 f3fc dc52 33bf d1eb
000000e0: a8c8 e445 05e8 18e5 7292 e10a df20 4619
000000f0: 1506 f67c e706 c704 c07f 0ce2 bfba 2c39

MobilenetV3/expanded_conv_3/squeeze_excite/Conv/weights/read i1 [24, 1, 1, 96]
-50 45 -67 10 -51 -10 -10 -102
-119 -33 5 -22 -13 -65 -50 45
-24 23 116 -40 52 -41 18 -11
29 -24 34 9 14 74 -20 31
-26 -9 31 -4 -2 -74 -20 -7
21 0 -41 34 -71 -25 12 3
-29 25 60 -7 -9 -127 -20 31
-21 -59 41 -32 -50 -68 -75 -49
0 -8 53 -36 -57 5 -45 16
82 25 -115 9 27 4 32 16
41 -31 36 -50 37 44 110 -3
-21 -112 -66 -3 45 -3 -74 21
21 5 20 88 -66 44 -10 -13
-26 15 -4 -21 66 -2 -21 -12
-38 45 127 9 37 32 75 13
28 13 17 10 18 -56 -26 72
-31 4 21 55 5 3 7 -35
1 -16 -44 -24 -34 -7 -5 -24
-2 -19 -3 40 -4 -27 -30 -5
4 -2 -14 -66 18 9 -22 -38
-6 28 -10 -22 -47 -62 2 20
17 23 -61 19 -19 28 114 -8
33 -9 33 -6 20 31 119 21
41 -25 -41 -12 45 -26 -53 11
8 70 -26 -35 4 -15 -9 -37
-34 16 8 24 -61 15 -67 29
-2 67 -18 -55 -64 45 109 -4
-31 -17 106 99 62 21 22 42
25 36 52 -127 -12 -10 43 -21
-19 26 18 -34 53 -1 -26 18
-38 -22 -9 32 77 -12 67 29
-91 -38 -25 7 -70 -24 0 -64
00000000: ce2d bd0a cdf6 f69a 89df 05ea f3bf ce2d
00000010: e817 74d8 34d7 12f5 1de8 2209 0e4a ec1f
00000020: e6f7 1ffc feb6 ecf9 1500 d722 b9e7 0c03
00000030: e319 3cf9 f781 ec1f ebc5 29e0 cebc b5cf
00000040: 00f8 35dc c705 d310 5219 8d09 1b04 2010
00000050: 29e1 24ce 252c 6efd eb90 befd 2dfd b615
00000060: 1505 1458 be2c f6f3 e60f fceb 42fe ebf4
00000070: da2d 7f09 2520 4b0d 1c0d 110a 12c8 e648
00000080: e104 1537 0503 07dd 01f0 d4e8 def9 fbe8
00000090: feed fd28 fce5 e2fb 04fe f2be 1209 eada
000000a0: fa1c f6ea d1c2 0214 1117 c313 ed1c 72f8
000000b0: 21f7 21fa 141f 7715 29e7 d7f4 2de6 cb0b
000000c0: 0846 e6dd 04f1 f7db de10 0818 c30f bd1d
000000d0: fe43 eec9 c02d 6dfc e1ef 6a63 3e15 162a
000000e0: 1924 3481 f4f6 2beb ed1a 12de 35ff e612
000000f0: daea f720 4df4 431d a5da e707 bae8 00c0

MobilenetV3/expanded_conv_3/squeeze_excite/Conv_1/weights/read i1 [96, 1, 1, 24]
0 -76 -15 0 0 0 42 -3
45 -7 9 0 -20 1 0 -24
-127 6 6 42 32 88 0 48
0 -36 -62 0 0 -48 80 17
-127 -78 14 0 111 -73 0 56
-83 2 56 -41 67 -65 0 31
0 127 109 0 0 -13 -78 -47
5 -67 -1 0 -68 -27 0 72
14 19 -38 -86 -66 -3 0 -98
0 -92 85 0 0 13 123 -54
-36 -54 27 0 1 -34 0 26
54 -25 -119 -20 118 -70 0 -127
0 0 61 0 0 33 64 -41
15 -32 4 0 -127 -42 0 38
-47 -47 -17 -17 29 -125 0 -66
0 -68 15 0 0 -40 127 15
-30 -57 13 0 13 1 0 -14
-53 -3 -61 5 112 -32 0 22
0 -127 17 0 0 81 -7 -36
-14 -19 1 0 34 -27 0 -32
-50 41 94 -34 0 -58 0 -75
0 15 118 0 0 127 34 -65
97 -37 17 0 66 -26 0 115
76 -15 8 -55 30 -120 0 -15
0 -77 -43 0 0 -79 17 10
121 -26 4 0 21 -82 0 -107
-8 -92 -32 -127 96 118 0 -28
0 36 16 0 0 22 75 -30
127 -26 8 0 1 -32 0 28
-68 -1 -8 52 3 -65 0 -32
0 -16 -34 0 0 -22 100 -13
13 -81 9 0 -127 5 0 24
00000000: 00b4 f100 0000 2afd 2df9 0900 ec01 00e8
00000010: 8106 062a 2058 0030 00dc c200 00d0 5011
00000020: 81b2 0e00 6fb7 0038 ad02 38d7 43bf 001f
00000030: 007f 6d00 00f3 b2d1 05bd ff00 bce5 0048
00000040: 0e13 daaa befd 009e 00a4 5500 000d 7bca
00000050: dcca 1b00 01de 001a 36e7 89ec 76ba 0081
00000060: 0000 3d00 0021 40d7 0fe0 0400 81d6 0026
00000070: d1d1 efef 1d83 00be 00bc 0f00 00d8 7f0f
00000080: e2c7 0d00 0d01 00f2 cbfd c305 70e0 0016
00000090: 0081 1100 0051 f9dc f2ed 0100 22e5 00e0
000000a0: ce29 5ede 00c6 00b5 000f 7600 007f 22bf
000000b0: 61db 1100 42e6 0073 4cf1 08c9 1e88 00f1
000000c0: 00b3 d500 00b1 110a 79e6 0400 15ae 0095
000000d0: f8a4 e081 6076 00e4 0024 1000 0016 4be2
000000e0: 7fe6 0800 01e0 001c bcff f834 03bf 00e0
000000f0: 00f0 de00 00ea 64f3 0daf 0900 8105 0018

MobilenetV3/expanded_conv_4/depthwise/depthwise_weights/read i1 [1, 5, 5, 240]
-12 -19 -12 10 13 -39 -34 15
4 -77 0 -80 -7 -15 7 1
3 2 12 -15 5 5 53 17
-13 -47 -15 30 -85 5 6 -9
-18 19 -11 -53 1 -40 8 6
2 11 -1 -7 -13 0 -17 -27
-30 4 7 -10 -2 15 27 24
-84 -5 10 -28 17 29 47 -3
27 -2 11 40 -20 3 14 2
-55 -6 23 -9 -9 8 13 -2
-1 -23 -1 85 15 5 -2 17
-1 -22 -12 -15 -10 -5 -8 43
21 51 -56 -14 -6 34 -7 11
12 8 -30 14 52 3 48 -18
-2 4 -16 -35 -13 27 -2 1
10 -15 -38 -20 -19 -3 8 -36
-43 14 -6 -18 16 21 19 -19
0 -7 12 3 4 -25 -22 -1
14 -13 -8 -7 10 20 7 -46
-10 2 -12 -5 -4 10 36 6
-2 -5 15 -9 54 10 7 -20
-22 -37 1 17 18 11 -9 1
14 -27 -4 -4 27 -19 -22 -27
3 3 -3 10 -39 -10 25 -50
37 18 -27 -11 -36 3 -10 -1
-6 3 13 6 2 -14 -17 28
-5 20 9 9 29 70 1 -50
-20 -26 -43 -12 22 35 18 22
19 -3 5 -52 43 -75 0 30
4 62 -22 8 -34 17 29 0
5 -13 -13 8 6 -34 2 0
3 -55 -3 -126 49 -17 0 -55
00000000: f4ed f40a 0dd9 de0f 04b3 00b0 f9f1 0701
00000010: 0302 0cf1 0505 3511 f3d1 f11e ab05 06f7
00000020: ee13 f5cb 01d8 0806 020b fff9 f300 efe5
00000030: e204 07f6 fe0f 1b18 acfb 0ae4 111d 2ffd
00000040: 1bfe 0b28 ec03 0e02 c9fa 17f7 f708 0dfe
00000050: ffe9 ff55 0f05 fe11 ffea f4f1 f6fb f82b
00000060: 1533 c8f2 fa22 f90b 0c08 e20e 3403 30ee
00000070: fe04 f0dd f31b fe01 0af1 daec edfd 08dc
00000080: d50e faee 1015 13ed 00f9 0c03 04e7 eaff
00000090: 0ef3 f8f9 0a14 07d2 f602 f4fb fc0a 2406
000000a0: fefb 0ff7 360a 07ec eadb 0111 120b f701
000000b0: 0ee5 fcfc 1bed eae5 0303 fd0a d9f6 19ce
000000c0: 2512 e5f5 dc03 f6ff fa03 0d06 02f2 ef1c
000000d0: fb14 0909 1d46 01ce ece6 d5f4 1623 1216
000000e0: 13fd 05cc 2bb5 001e 043e ea08 de11 1d00
000000f0: 05f3 f308 06de 0200 03c9 fd82 31ef 00c9

MobilenetV3/expanded_conv_4/expand/weights/read i1 [240, 1, 1, 40]
-14 -17 9 97 7 33 -57 -30
62 21 -8 7 11 -83 12 51
-27 61 29 -127 26 -17 -47 -28
-21 -45 -64 -45 42 94 -86 -33
14 21 59 -22 -11 -39 26 4
39 -20 -71 -100 -45 78 62 -69
-17 60 -127 12 68 92 38 17
-60 20 60 -5 -16 -18 51 24
-23 -24 27 -122 -50 -18 -80 3
21 19 -18 21 -75 0 -24 7
24 -19 5 -36 14 -19 127 9
-37 2 38 20 89 -58 4 -9
0 -6 35 -52 19 -12 -21 38
-29 -10 -46 -9 -37 0 64 10
-11 9 -6 -35 -43 37 -52 76
-11 33 26 5 16 15 0 22
-2 73 23 59 25 -35 -36 -3
-21 0 -10 -12 -4 -36 -37 -4
-38 -14 -12 33 11 -3 11 -25
-72 -37 -11 35 56 37 43 -127
88 -89 -80 -127 -1 -6 -42 -61
5 31 2 51 -28 -115 -59 -45
-98 33 0 -3 -46 -16 2 -15
-68 -84 79 -22 100 6 89 -28
25 79 2 19 -3 22 70 24
-23 21 -81 -22 54 101 -31 28
20 -10 10 18 19 -37 22 69
48 78 -86 65 -14 56 126 -78
-46 -65 4 -1 -44 12 -56 103
5 -78 -11 127 29 35 5 109
25 -40 -67 69 42 -37 -13 -11
18 119 127 41 -9 47 -35 33
00000000: f2ef 0961 0721 c7e2 3e15 f807 0bad 0c33
00000010: e53d 1d81 1aef d1e4 ebd3 c0d3 2a5e aadf
00000020: 0e15 3bea f5d9 1a04 27ec b99c d34e 3ebb
00000030: ef3c 810c 445c 2611 c414 3cfb f0ee 3318
00000040: e9e8 1b86 ceee b003 1513 ee15 b500 e807
00000050: 18ed 05dc 0eed 7f09 db02 2614 59c6 04f7
00000060: 00fa 23cc 13f4 eb26 e3f6 d2f7 db00 400a
00000070: f509 fadd d525 cc4c f521 1a05 100f 0016
00000080: fe49 173b 19dd dcfd eb00 f6f4 fcdc dbfc
00000090: daf2 f421 0bfd 0be7 b8db f523 3825 2b81
000000a0: 58a7 b081 fffa d6c3 051f 0233 e48d c5d3
000000b0: 9e21 00fd d2f0 02f1 bcac 4fea 6406 59e4
000000c0: 194f 0213 fd16 4618 e915 afea 3665 e11c
000000d0: 14f6 0a12 13db 1645 304e aa41 f238 7eb2
000000e0: d2bf 04ff d40c c867 05b2 f57f 1d23 056d
000000f0: 19d8 bd45 2adb f3f5 1277 7f29 f72f dd21

MobilenetV3/expanded_conv_4/project/weights/read i1 [40, 1, 1, 240]
-9 -41 31 51 -25 -8 16 24
-51 30 16 -40 60 -24 -36 -48
-28 1 -68 7 -49 -56 7 27
-3 21 -30 23 62 -2 -2 -24
85 8 26 -38 39 53 -34 -11
-28 -48 -2 4 71 11 34 26
-7 23 -24 -38 -127 -10 -72 4
10 -56 29 -73 -109 35 -79 -65
17 -29 49 -9 -56 -18 -60 -12
-26 -50 53 15 54 -19 -81 35
22 20 -94 -48 -49 -10 -48 18
-61 -64 -5 -122 -43 -15 14 15
-1 -38 -4 3 -43 -33 63 42
-47 51 -4 6 -39 19 -73 91
70 -15 -16 -27 -50 19 3 -34
-22 25 67 3 -10 22 110 -40
-24 -8 8 70 -36 -12 29 28
-15 39 11 16 6 -12 25 -39
60 -43 15 20 -53 -37 46 -52
64 -51 2 16 29 -24 30 -23
-23 41 19 -4 5 2 -33 -14
-13 -32 52 -49 25 -3 -24 33
-13 -31 45 -79 8 -81 -20 -29
-1 -57 -9 10 -70 4 -5 67
13 39 -34 -14 -20 -27 -52 77
-42 0 56 -101 -14 55 -8 28
24 -47 18 11 -4 21 -24 117
34 37 -15 -23 -38 -58 -7 2
-37 -55 -39 21 73 1 77 -18
6 -7 40 19 -15 -5 49 21
-10 39 -6 -27 8 34 33 42
-11 49 13 -11 1 -47 40 0
00000000: f7d7 1f33 e7f8 1018 cd1e 10d8 3ce8 dcd0
00000010: e401 bc07 cfc8 071b fd15 e217 3efe fee8
00000020: 5508 1ada 2735 def5 e4d0 fe04 470b 221a
00000030: f917 e8da 81f6 b804 0ac8 1db7 9323 b1bf
00000040: 11e3 31f7 c8ee c4f4 e6ce 350f 36ed af23
00000050: 1614 a2d0 cff6 d012 c3c0 fb86 d5f1 0e0f
00000060: ffda fc03 d5df 3f2a d133 fc06 d913 b75b
00000070: 46f1 f0e5 ce13 03de ea19 4303 f616 6ed8
00000080: e8f8 0846 dcf4 1d1c f127 0b10 06f4 19d9
00000090: 3cd5 0f14 cbdb 2ecc 40cd 0210 1de8 1ee9
000000a0: e929 13fc 0502 dff2 f3e0 34cf 19fd e821
000000b0: f3e1 2db1 08af ece3 ffc7 f70a ba04 fb43
000000c0: 0d27 def2 ece5 cc4d d600 389b f237 f81c
000000d0: 18d1 120b fc15 e875 2225 f1e9 dac6 f902
000000e0: dbc9 d915 4901 4dee 06f9 2813 f1fb 3115
000000f0: f627 fae5 0822 212a f531 0df5 01d1 2800

MobilenetV3/expanded_conv_4/squeeze_excite/Conv/weights/read i1 [64, 1, 1, 240]
22 18 -1 36 37 19 -13 24
17 -22 13 5 20 -28 33 21
19 28 -19 13 20 23 21 18
28 17 25 19 -8 14 -4 -32
-5 33 30 -6 11 16 27 -26
26 -37 22 29 -4 18 17 17
18 28 5 2 31 -2 9 40
3 3 27 15 2 34 -127 17
21 14 9 16 28 10 19 17
18 -33 14 10 -2 25 19 -2
8 55 27 16 3 -22 23 -12
-41 -24 -26 -42 25 13 18 73
38 -10 -9 22 0 15 -3 27
22 27 16 39 6 -9 16 -11
-22 26 30 32 22 43 -3 14
23 20 24 28 -22 17 40 26
-2 19 17 28 6 14 37 20
9 32 36 29 17 16 12 22
-6 21 21 -10 16 21 -2 8
0 -6 2 11 37 4 52 -8
22 30 17 4 6 10 -25 31
20 5 37 17 31 24 -4 -44
-12 19 -14 18 16 24 -21 22
31 29 33 27 5 18 12 -21
1 16 -7 23 22 -7 27 19
26 -4 -26 16 1 -15 8 -2
-19 29 -10 -102 -8 20 34 41
11 15 10 43 18 14 -30 21
-18 43 -28 -11 19 24 6 19
25 11 -45 27 15 8 6 15
-12 20 0 4 -2 -2 -1 -3
-8 20 -6 -11 -1 -1 -12 1
00000000: 1612 ff24 2513 f318 11ea 0d05 14e4 2115
00000010: 131c ed0d 1417 1512 1c11 1913 f80e fce0
00000020: fb21 1efa 0b10 1be6 1adb 161d fc12 1111
00000030: 121c 0502 1ffe 0928 0303 1b0f 0222 8111
00000040: 150e 0910 1c0a 1311 12df 0e0a fe19 13fe
00000050: 0837 1b10 03ea 17f4 d7e8 e6d6 190d 1249
00000060: 26f6 f716 000f fd1b 161b 1027 06f7 10f5
00000070: ea1a 1e20 162b fd0e 1714 181c ea11 281a
00000080: fe13 111c 060e 2514 0920 241d 1110 0c16
00000090: fa15 15f6 1015 fe08 00fa 020b 2504 34f8
000000a0: 161e 1104 060a e71f 1405 2511 1f18 fcd4
000000b0: f413 f212 1018 eb16 1f1d 211b 0512 0ceb
000000c0: 0110 f917 16f9 1b13 1afc e610 01f1 08fe
000000d0: ed1d f69a f814 2229 0b0f 0a2b 120e e215
000000e0: ee2b e4f5 1318 0613 190b d31b 0f08 060f
000000f0: f414 0004 fefe fffd f814 faf5 ffff f401

MobilenetV3/expanded_conv_4/squeeze_excite/Conv_1/weights/read i1 [240, 1, 1, 64]
-58 25 -7 0 -59 -8 -18 88
-19 116 -46 18 46 -3 -56 11
-127 -90 7 4 58 -122 5 -6
0 -123 0 -46 -4 -62 -38 -98
53 20 15 -78 -11 -120 -51 34
-16 -87 32 -40 -36 -8 76 -17
0 37 6 4 0 11 10 -10
0 -103 -120 16 -4 -5 -80 -23
-44 15 -30 -11 -95 -8 -15 -22
-11 -7 -62 -12 -8 -8 -64 -43
-81 -42 -14 -40 -11 -100 -42 -19
0 -89 0 -47 -48 0 -68 -94
-12 -5 -41 -65 -21 -65 -76 -15
-9 -24 -2 -47 -45 -8 -7 3
0 -13 0 -3 0 -3 -11 -10
0 -92 -127 2 0 8 -47 -11
-45 9 -44 -25 -127 -5 -15 7
-7 -9 -32 -25 5 -17 -78 -101
-39 -6 -14 -58 0 -68 -66 1
0 -61 0 -41 -61 13 -68 -91
15 5 -72 -38 -22 -35 -84 -17
-7 1 6 -44 -45 -3 2 9
0 -18 11 5 0 1 16 -10
0 -76 -92 22 1 3 -48 0
-48 -10 -45 -28 -127 -3 -21 -16
-9 -37 -27 -33 -9 -24 -81 -110
-42 -11 -11 -62 -13 -64 -70 -2
0 -63 0 -37 -63 0 -61 -93
-10 -3 -73 -37 -21 -40 -80 -22
-8 -13 -5 -44 -41 -3 -19 0
0 -24 -1 -1 0 -2 -1 -11
0 -79 -83 -1 -6 -8 -58 -1
00000000: c619 f900 c5f8 ee58 ed74 d212 2efd c80b
00000010: 81a6 0704 3a86 05fa 0085 00d2 fcc2 da9e
00000020: 3514 0fb2 f588 cd22 f0a9 20d8 dcf8 4cef
00000030: 0025 0604 000b 0af6 0099 8810 fcfb b0e9
00000040: d40f e2f5 a1f8 f1ea f5f9 c2f4 f8f8 c0d5
00000050: afd6 f2d8 f59c d6ed 00a7 00d1 d000 bca2
00000060: f4fb d7bf ebbf b4f1 f7e8 fed1 d3f8 f903
00000070: 00f3 00fd 00fd f5f6 00a4 8102 0008 d1f5
00000080: d309 d4e7 81fb f107 f9f7 e0e7 05ef b29b
00000090: d9fa f2c6 00bc be01 00c3 00d7 c30d bca5
000000a0: 0f05 b8da eadd acef f901 06d4 d3fd 0209
000000b0: 00ee 0b05 0001 10f6 00b4 a416 0103 d000
000000c0: d0f6 d3e4 81fd ebf0 f7db e5df f7e8 af92
000000d0: d6f5 f5c2 f3c0 bafe 00c1 00db c100 c3a3
000000e0: f6fd b7db ebd8 b0ea f8f3 fbd4 d7fd ed00
000000f0: 00e8 ffff 00fe fff5 00b1 adff faf8 c6ff

MobilenetV3/expanded_conv_5/depthwise/depthwise_weights/read i1 [1, 5, 5, 240]
16 -11 -6 -23 12 21 -11 -53
8 -4 59 -26 34 39 19 94
-3 1 3 22 11 27 -1 -4
-35 -13 -47 -12 2 -18 -34 30
43 -1 6 -1 -10 3 64 12
-2 10 1 -27 -31 27 -19 15
-2 -2 52 -9 -42 53 23 39
-71 -28 5 -52 11 -10 -56 11
-48 -78 18 -52 5 -51 58 28
13 7 -4 -32 17 58 -7 -1
40 23 -5 -24 -48 13 -64 81
-5 15 51 27 -2 -10 -24 39
35 2 38 -17 2 5 6 26
1 -10 -5 37 12 10 -93 -7
16 -39 14 -21 -9 -12 -22 3
92 18 50 -41 -16 57 11 -12
-123 3 -1 -13 27 -4 -22 4
-2 -1 2 17 74 113 11 -8
-12 27 2 -6 -21 19 17 -14
36 -19 70 -110 -52 2 -43 34
-24 8 -108 -34 -17 30 10 -18
96 -5 29 31 2 -57 -68 28
5 -3 12 -10 34 11 -13 -26
10 -1 -53 22 32 5 -55 48
10 -12 -19 -77 -95 -30 14 -44
-25 13 21 61 -3 -17 6 -30
-45 50 13 -45 -8 22 14 10
38 -12 29 -9 0 127 -1 22
69 -27 10 -21 0 2 2 -5
51 18 17 -37 -30 -5 -39 13
34 20 -11 80 -12 16 -40 7
25 6 -15 36 62 30 -11 -50
00000000: 10f5 fae9 0c15 f5cb 08fc 3be6 2227 135e
00000010: fd01 0316 0b1b fffc ddf3 d1f4 02ee de1e
00000020: 2bff 06ff f603 400c fe0a 01e5 e11b ed0f
00000030: fefe 34f7 d635 1727 b9e4 05cc 0bf6 c80b
00000040: d0b2 12cc 05cd 3a1c 0d07 fce0 113a f9ff
00000050: 2817 fbe8 d00d c051 fb0f 331b fef6 e827
00000060: 2302 26ef 0205 061a 01f6 fb25 0c0a a3f9
00000070: 10d9 0eeb f7f4 ea03 5c12 32d7 f039 0bf4
00000080: 8503 fff3 1bfc ea04 feff 0211 4a71 0bf8
00000090: f41b 02fa eb13 11f2 24ed 4692 cc02 d522
000000a0: e808 94de ef1e 0aee 60fb 1d1f 02c7 bc1c
000000b0: 05fd 0cf6 220b f3e6 0aff cb16 2005 c930
000000c0: 0af4 edb3 a1e2 0ed4 e70d 153d fdef 06e2
000000d0: d332 0dd3 f816 0e0a 26f4 1df7 007f ff16
000000e0: 45e5 0aeb 0002 02fb 3312 11db e2fb d90d
000000f0: 2214 f550 f410 d807 1906 f124 3e1e f5ce

MobilenetV3/expanded_conv_5/expand/weights/read i1 [240, 1, 1, 40]
-3 45 37 -30 5 55 14 -58
6 17 -24 25 69 60 -79 -5
20 8 8 41 61 27 -24 79
-64 -19 -10 -71 96 -66 0 54
127 -9 -51 -30 7 -17 -66 67
9 86 -49 91 -74 32 11 45
19 6 33 -24 38 26 -3 -108
-4 -37 -7 -40 -8 24 -46 3
-10 -52 -65 -51 -13 -62 -13 -4
-127 36 42 58 -14 -71 -9 48
-102 -49 70 113 -65 -127 52 -35
-2 7 -45 -51 -24 1 -103 8
5 5 44 -66 -44 -12 29 36
6 -91 -17 21 13 53 -103 -68
0 -15 34 71 4 -29 35 -80
20 14 72 13 80 -47 -28 -22
22 69 79 60 55 73 -116 14
-106 108 50 -29 17 22 55 -80
-18 -6 114 -57 88 -19 47 -3
37 -67 73 38 -108 -10 127 -44
39 61 -3 -97 -37 50 4 -71
96 74 59 29 31 60 -82 6
-36 -26 -8 -46 26 15 60 37
-43 -12 78 -95 -36 45 -33 -85
25 5 43 -16 7 -127 -65 -49
-32 52 -55 7 17 -51 53 -35
6 127 91 80 -72 -93 43 -73
-7 78 -60 -85 14 104 23 16
10 -14 -54 -38 -119 21 -13 77
-40 33 53 -96 -24 9 -16 58
45 -3 -36 12 -35 47 -20 -3
-2 64 0 21 -28 -41 -14 55
00000000: fd2d 25e2 0537 0ec6 0611 e819 453c b1fb
00000010: 1408 0829 3d1b e84f c0ed f6b9 60be 0036
00000020: 7ff7 cde2 07ef be43 0956 cf5b b620 0b2d
00000030: 1306 21e8 261a fd94 fcdb f9d8 f818 d203
00000040: f6cc bfcd f3c2 f3fc 8124 2a3a f2b9 f730
00000050: 9acf 4671 bf81 34dd fe07 d3cd e801 9908
00000060: 0505 2cbe d4f4 1d24 06a5 ef15 0d35 99bc
00000070: 00f1 2247 04e3 23b0 140e 480d 50d1 e4ea
00000080: 1645 4f3c 3749 8c0e 966c 32e3 1116 37b0
00000090: eefa 72c7 58ed 2ffd 25bd 4926 94f6 7fd4
000000a0: 273d fd9f db32 04b9 604a 3b1d 1f3c ae06
000000b0: dce6 f8d2 1a0f 3c25 d5f4 4ea1 dc2d dfab
000000c0: 1905 2bf0 0781 bfcf e034 c907 11cd 35dd
000000d0: 067f 5b50 b8a3 2bb7 f94e c4ab 0e68 1710
000000e0: 0af2 cada 8915 f34d d821 35a0 e809 f03a
000000f0: 2dfd dc0c dd2f ecfd fe40 0015 e4d7 f237

MobilenetV3/expanded_conv_5/project/weights/read i1 [40, 1, 1, 240]
-6 26 9 -10 -50 54 -22 -31
-11 -18 -26 14 10 -19 11 93
-8 14 -10 38 90 -15 40 -67
30 27 -23 34 -36 43 25 14
12 -2 17 13 37 -12 35 -59
15 47 -21 42 66 23 -23 -22
-26 39 44 0 -6 41 19 -1
-73 24 56 -8 27 -15 27 -31
25 26 66 61 -34 -15 -24 45
12 0 -14 -10 -44 16 13 25
53 72 -42 -73 24 -4 14 14
-33 -29 -21 -67 -5 -39 -36 35
-23 24 42 -61 -24 76 -17 -4
42 107 34 47 -5 -18 -25 62
20 6 -30 -26 59 62 -45 26
-32 -10 -50 -20 12 -18 -22 22
-19 -27 36 50 -22 9 -43 -28
-46 66 -32 -61 5 41 5 -50
-15 -22 58 37 -14 -15 9 -26
-7 -6 92 15 10 5 -6 4
51 -21 -68 4 -14 -20 -30 -28
40 44 42 0 21 7 58 22
7 -16 -48 -11 51 2 -5 54
-40 -60 3 -19 -13 33 -15 -29
-30 9 -42 12 -11 -14 8 42
21 30 8 -16 -26 0 2 28
127 -10 4 2 23 20 28 -20
-5 13 -17 28 -14 70 -34 -52
90 22 -52 71 -14 51 -5 0
-46 -5 31 -13 11 -10 -6 -14
-44 -63 27 15 -71 18 -14 -1
-1 -46 34 -28 52 -28 -12 0
00000000: fa1a 09f6 ce36 eae1 f5ee e60e 0aed 0b5d
00000010: f80e f626 5af1 28bd 1e1b e922 dc2b 190e
00000020: 0cfe 110d 25f4 23c5 0f2f eb2a 4217 e9ea
00000030: e627 2c00 fa29 13ff b718 38f8 1bf1 1be1
00000040: 191a 423d def1 e82d 0c00 f2f6 d410 0d19
00000050: 3548 d6b7 18fc 0e0e dfe3 ebbd fbd9 dc23
00000060: e918 2ac3 e84c effc 2a6b 222f fbee e73e
00000070: 1406 e2e6 3b3e d31a e0f6 ceec 0cee ea16
00000080: ede5 2432 ea09 d5e4 d242 e0c3 0529 05ce
00000090: f1ea 3a25 f2f1 09e6 f9fa 5c0f 0a05 fa04
000000a0: 33eb bc04 f2ec e2e4 282c 2a00 1507 3a16
000000b0: 07f0 d0f5 3302 fb36 d8c4 03ed f321 f1e3
000000c0: e209 d60c f5f2 082a 151e 08f0 e600 021c
000000d0: 7ff6 0402 1714 1cec fb0d ef1c f246 decc
000000e0: 5a16 cc47 f233 fb00 d2fb 1ff3 0bf6 faf2
000000f0: d4c1 1b0f b912 f2ff ffd2 22e4 34e4 f400

MobilenetV3/expanded_conv_5/squeeze_excite/Conv/weights/read i1 [64, 1, 1, 240]
-49 21 5 -22 -24 114 -16 1
77 79 22 16 -7 15 16 50
2 -9 -114 29 24 31 39 29
-4 19 43 13 53 61 -35 38
-29 51 -10 58 21 6 45 7
40 88 -22 11 18 16 30 60
-15 66 50 -34 21 22 -10 48
-105 -6 50 46 66 43 38 34
75 -13 -43 23 27 19 23 24
40 25 38 -26 -1 8 39 59
29 -1 60 -15 7 -16 15 4
-27 58 43 -40 14 -13 0 12
-2 4 7 7 -10 -31 -38 -17
23 -22 66 15 20 22 36 -33
-21 -34 -23 -17 -112 -37 -21 49
-1 43 -62 17 -4 -38 10 16
11 26 13 -16 -19 14 19 13
34 24 83 28 -6 8 -21 61
42 -24 77 76 41 17 -8 38
26 30 14 -47 18 5 -18 36
21 50 -55 12 -46 43 48 54
-40 -22 104 40 11 11 -30 13
21 34 3 17 -15 35 46 15
55 -29 14 72 12 -19 -14 4
-6 -35 46 62 -63 17 21 48
-16 99 -15 -1 -4 29 24 -85
-30 36 14 -127 -31 13 51 41
73 21 67 1 8 -16 46 2
29 38 12 41 1 -70 69 12
-22 34 14 72 -53 57 29 48
-20 30 0 -7 21 105 21 34
63 30 19 55 3 9 24 3
00000000: cf15 05ea e872 f001 4d4f 1610 f90f 1032
00000010: 02f7 8e1d 181f 271d fc13 2b0d 353d dd26
00000020: e333 f63a 1506 2d07 2858 ea0b 1210 1e3c
00000030: f142 32de 1516 f630 97fa 322e 422b 2622
00000040: 4bf3 d517 1b13 1718 2819 26e6 ff08 273b
00000050: 1dff 3cf1 07f0 0f04 e53a 2bd8 0ef3 000c
00000060: fe04 0707 f6e1 daef 17ea 420f 1416 24df
00000070: ebde e9ef 90db eb31 ff2b c211 fcda 0a10
00000080: 0b1a 0df0 ed0e 130d 2218 531c fa08 eb3d
00000090: 2ae8 4d4c 2911 f826 1a1e 0ed1 1205 ee24
000000a0: 1532 c90c d22b 3036 d8ea 6828 0b0b e20d
000000b0: 1522 0311 f123 2e0f 37e3 0e48 0ced f204
000000c0: fadd 2e3e c111 1530 f063 f1ff fc1d 18ab
000000d0: e224 0e81 e10d 3329 4915 4301 08f0 2e02
000000e0: 1d26 0c29 01ba 450c ea22 0e48 cb39 1d30
000000f0: ec1e 00f9 1569 1522 3f1e 1337 0309 1803
